…
Unable to open file.

Error in eval_sub (line 3)
list = importdata(fullfile(data_root,eval_list));

Error in eval_all (line 72)
  eval_sub(data_name,data_root,eval_list,model_weights,model_deploy,fea_cha,base_size,crop_size,data_class,data_colormap,
  ...
} 
>> 
>> 
>> 
>> 
>> eval_all
[H[2J
gpu_id_array =

     0

WARNING: Logging before InitGoogleLogging() is written to STDERR
I0316 22:50:05.978473 26470 net.cpp:49] Initializing net from parameters: 
input: "data"
input_dim: 1
input_dim: 3
input_dim: 473
input_dim: 473
state {
  phase: TEST
}
layer {
  name: "conv1_1_3x3_s2"
  type: "Convolution"
  bottom: "data"
  top: "conv1_1_3x3_s2"
  param {
    lr_mult: 1
    decay_mult: 1
  }
  convolution_param {
    num_output: 64
    bias_term: false
    pad: 1
    kernel_size: 3
    stride: 2
    weight_filler {
      type: "msra"
    }
  }
}
layer {
  name: "conv1_1_3x3_s2/bn"
  type: "BN"
  bottom: "conv1_1_3x3_s2"
  top: "conv1_1_3x3_s2"
  param {
    lr_mult: 1
    decay_mult: 0
  }
  param {
    lr_mult: 1
    decay_mult: 0
  }
  param {
    lr_mult: 0
    decay_mult: 0
  }
  param {
    lr_mult: 0
    decay_mult: 0
  }
  bn_param {
    slope_filler {
      type: "constant"
      value: 1
    }
    bias_filler {
      type: "constant"
      value: 0
    }
    momentum: 0.95
    frozen: true
  }
}
layer {
  name: "conv1_1_3x3_s2/relu"
  type: "ReLU"
  bottom: "conv1_1_3x3_s2"
  top: "conv1_1_3x3_s2"
}
layer {
  name: "conv1_2_3x3"
  type: "Convolution"
  bottom: "conv1_1_3x3_s2"
  top: "conv1_2_3x3"
  param {
    lr_mult: 1
    decay_mult: 1
  }
  convolution_param {
    num_output: 64
    bias_term: false
    pad: 1
    kernel_size: 3
    stride: 1
    weight_filler {
      type: "msra"
    }
  }
}
layer {
  name: "conv1_2_3x3/bn"
  type: "BN"
  bottom: "conv1_2_3x3"
  top: "conv1_2_3x3"
  param {
    lr_mult: 1
    decay_mult: 0
  }
  param {
    lr_mult: 1
    decay_mult: 0
  }
  param {
    lr_mult: 0
    decay_mult: 0
  }
  param {
    lr_mult: 0
    decay_mult: 0
  }
  bn_param {
    slope_filler {
      type: "constant"
      value: 1
    }
    bias_filler {
      type: "constant"
      value: 0
    }
    momentum: 0.95
    frozen: true
  }
}
layer {
  name: "conv1_2_3x3/relu"
  type: "ReLU"
  bottom: "conv1_2_3x3"
  top: "conv1_2_3x3"
}
layer {
  name: "conv1_3_3x3"
  type: "Convolution"
  bottom: "conv1_2_3x3"
  top: "conv1_3_3x3"
  param {
    lr_mult: 1
    decay_mult: 1
  }
  convolution_param {
    num_output: 128
    bias_term: false
    pad: 1
    kernel_size: 3
    stride: 1
    weight_filler {
      type: "msra"
    }
  }
}
layer {
  name: "conv1_3_3x3/bn"
  type: "BN"
  bottom: "conv1_3_3x3"
  top: "conv1_3_3x3"
  param {
    lr_mult: 1
    decay_mult: 0
  }
  param {
    lr_mult: 1
    decay_mult: 0
  }
  param {
    lr_mult: 0
    decay_mult: 0
  }
  param {
    lr_mult: 0
    decay_mult: 0
  }
  bn_param {
    slope_filler {
      type: "constant"
      value: 1
    }
    bias_filler {
      type: "constant"
      value: 0
    }
    momentum: 0.95
    frozen: true
  }
}
layer {
  name: "conv1_3_3x3/relu"
  type: "ReLU"
  bottom: "conv1_3_3x3"
  top: "conv1_3_3x3"
}
layer {
  name: "pool1_3x3_s2"
  type: "Pooling"
  bottom: "conv1_3_3x3"
  top: "pool1_3x3_s2"
  pooling_param {
    pool: MAX
    kernel_size: 3
    stride: 2
    pad: 1
  }
}
layer {
  name: "conv2_1_1x1_reduce"
  type: "Convolution"
  bottom: "pool1_3x3_s2"
  top: "conv2_1_1x1_reduce"
  param {
    lr_mult: 1
    decay_mult: 1
  }
  convolution_param {
    num_output: 64
    bias_term: false
    pad: 0
    kernel_size: 1
    stride: 1
    weight_filler {
      type: "msra"
    }
  }
}
layer {
  name: "conv2_1_1x1_reduce/bn"
  type: "BN"
  bottom: "conv2_1_1x1_reduce"
  top: "conv2_1_1x1_reduce"
  param {
    lr_mult: 1
    decay_mult: 0
  }
  param {
    lr_mult: 1
    decay_mult: 0
  }
  param {
    lr_mult: 0
    decay_mult: 0
  }
  param {
    lr_mult: 0
    decay_mult: 0
  }
  bn_param {
    slope_filler {
      type: "constant"
      value: 1
    }
    bias_filler {
      type: "constant"
      value: 0
    }
    momentum: 0.95
    frozen: true
  }
}
layer {
  name: "conv2_1_1x1_reduce/relu"
  type: "ReLU"
  bottom: "conv2_1_1x1_reduce"
  top: "conv2_1_1x1_reduce"
}
layer {
  name: "conv2_1_3x3"
  type: "Convolution"
  bottom: "conv2_1_1x1_reduce"
  top: "conv2_1_3x3"
  param {
    lr_mult: 1
    decay_mult: 1
  }
  convolution_param {
    num_output: 64
    bias_term: false
    pad: 1
    kernel_size: 3
    stride: 1
    weight_filler {
      type: "msra"
    }
  }
}
layer {
  name: "conv2_1_3x3/bn"
  type: "BN"
  bottom: "conv2_1_3x3"
  top: "conv2_1_3x3"
  param {
    lr_mult: 1
    decay_mult: 0
  }
  param {
    lr_mult: 1
    decay_mult: 0
  }
  param {
    lr_mult: 0
    decay_mult: 0
  }
  param {
    lr_mult: 0
    decay_mult: 0
  }
  bn_param {
    slope_filler {
      type: "constant"
      value: 1
    }
    bias_filler {
      type: "constant"
      value: 0
    }
    momentum: 0.95
    frozen: true
  }
}
layer {
  name: "conv2_1_3x3/relu"
  type: "ReLU"
  bottom: "conv2_1_3x3"
  top: "conv2_1_3x3"
}
layer {
  name: "conv2_1_1x1_increase"
  type: "Convolution"
  bottom: "conv2_1_3x3"
  top: "conv2_1_1x1_increase"
  param {
    lr_mult: 1
    decay_mult: 1
  }
  convolution_param {
    num_output: 256
    bias_term: false
    pad: 0
    kernel_size: 1
    stride: 1
    weight_filler {
      type: "msra"
    }
  }
}
layer {
  name: "conv2_1_1x1_increase/bn"
  type: "BN"
  bottom: "conv2_1_1x1_increase"
  top: "conv2_1_1x1_increase"
  param {
    lr_mult: 1
    decay_mult: 0
  }
  param {
    lr_mult: 1
    decay_mult: 0
  }
  param {
    lr_mult: 0
    decay_mult: 0
  }
  param {
    lr_mult: 0
    decay_mult: 0
  }
  bn_param {
    slope_filler {
      type: "constant"
      value: 1
    }
    bias_filler {
      type: "constant"
      value: 0
    }
    momentum: 0.95
    frozen: true
  }
}
layer {
  name: "conv2_1_1x1_proj"
  type: "Convolution"
  bottom: "pool1_3x3_s2"
  top: "conv2_1_1x1_proj"
  param {
    lr_mult: 1
    decay_mult: 1
  }
  convolution_param {
    num_output: 256
    bias_term: false
    pad: 0
    kernel_size: 1
    stride: 1
    weight_filler {
      type: "msra"
    }
  }
}
layer {
  name: "conv2_1_1x1_proj/bn"
  type: "BN"
  bottom: "conv2_1_1x1_proj"
  top: "conv2_1_1x1_proj"
  param {
    lr_mult: 1
    decay_mult: 0
  }
  param {
    lr_mult: 1
    decay_mult: 0
  }
  param {
    lr_mult: 0
    decay_mult: 0
  }
  param {
    lr_mult: 0
    decay_mult: 0
  }
  bn_param {
    slope_filler {
      type: "constant"
      value: 1
    }
    bias_filler {
      type: "constant"
      value: 0
    }
    momentum: 0.95
    frozen: true
  }
}
layer {
  name: "conv2_1"
  type: "Eltwise"
  bottom: "conv2_1_1x1_proj"
  bottom: "conv2_1_1x1_increase"
  top: "conv2_1"
  eltwise_param {
    operation: SUM
  }
}
layer {
  name: "conv2_1/relu"
  type: "ReLU"
  bottom: "conv2_1"
  top: "conv2_1"
}
layer {
  name: "conv2_2_1x1_reduce"
  type: "Convolution"
  bottom: "conv2_1"
  top: "conv2_2_1x1_reduce"
  param {
    lr_mult: 1
    decay_mult: 1
  }
  convolution_param {
    num_output: 64
    bias_term: false
    pad: 0
    kernel_size: 1
    stride: 1
    weight_filler {
      type: "msra"
    }
  }
}
layer {
  name: "conv2_2_1x1_reduce/bn"
  type: "BN"
  bottom: "conv2_2_1x1_reduce"
  top: "conv2_2_1x1_reduce"
  param {
    lr_mult: 1
    decay_mult: 0
  }
  param {
    lr_mult: 1
    decay_mult: 0
  }
  param {
    lr_mult: 0
    decay_mult: 0
  }
  param {
    lr_mult: 0
    decay_mult: 0
  }
  bn_param {
    slope_filler {
      type: "constant"
      value: 1
    }
    bias_filler {
      type: "constant"
      value: 0
    }
    momentum: 0.95
    frozen: true
  }
}
layer {
  name: "conv2_2_1x1_reduce/relu"
  type: "ReLU"
  bottom: "conv2_2_1x1_reduce"
  top: "conv2_2_1x1_reduce"
}
layer {
  name: "conv2_2_3x3"
  type: "Convolution"
  bottom: "conv2_2_1x1_reduce"
  top: "conv2_2_3x3"
  param {
    lr_mult: 1
    decay_mult: 1
  }
  convolution_param {
    num_output: 64
    bias_term: false
    pad: 1
    kernel_size: 3
    stride: 1
    weight_filler {
      type: "msra"
    }
  }
}
layer {
  name: "conv2_2_3x3/bn"
  type: "BN"
  bottom: "conv2_2_3x3"
  top: "conv2_2_3x3"
  param {
    lr_mult: 1
    decay_mult: 0
  }
  param {
    lr_mult: 1
    decay_mult: 0
  }
  param {
    lr_mult: 0
    decay_mult: 0
  }
  param {
    lr_mult: 0
    decay_mult: 0
  }
  bn_param {
    slope_filler {
      type: "constant"
      value: 1
    }
    bias_filler {
      type: "constant"
      value: 0
    }
    momentum: 0.95
    frozen: true
  }
}
layer {
  name: "conv2_2_3x3/relu"
  type: "ReLU"
  bottom: "conv2_2_3x3"
  top: "conv2_2_3x3"
}
layer {
  name: "conv2_2_1x1_increase"
  type: "Convolution"
  bottom: "conv2_2_3x3"
  top: "conv2_2_1x1_increase"
  param {
    lr_mult: 1
    decay_mult: 1
  }
  convolution_param {
    num_output: 256
    bias_term: false
    pad: 0
    kernel_size: 1
    stride: 1
    weight_filler {
      type: "msra"
    }
  }
}
layer {
  name: "conv2_2_1x1_increase/bn"
  type: "BN"
  bottom: "conv2_2_1x1_increase"
  top: "conv2_2_1x1_increase"
  param {
    lr_mult: 1
    decay_mult: 0
  }
  param {
    lr_mult: 1
    decay_mult: 0
  }
  param {
    lr_mult: 0
    decay_mult: 0
  }
  param {
    lr_mult: 0
    decay_mult: 0
  }
  bn_param {
    slope_filler {
      type: "constant"
      value: 1
    }
    bias_filler {
      type: "constant"
      value: 0
    }
    momentum: 0.95
    frozen: true
  }
}
layer {
  name: "conv2_2"
  type: "Eltwise"
  bottom: "conv2_1"
  bottom: "conv2_2_1x1_increase"
  top: "conv2_2"
  eltwise_param {
    operation: SUM
  }
}
layer {
  name: "conv2_2/relu"
  type: "ReLU"
  bottom: "conv2_2"
  top: "conv2_2"
}
layer {
  name: "conv2_3_1x1_reduce"
  type: "Convolution"
  bottom: "conv2_2"
  top: "conv2_3_1x1_reduce"
  param {
    lr_mult: 1
    decay_mult: 1
  }
  convolution_param {
    num_output: 64
    bias_term: false
    pad: 0
    kernel_size: 1
    stride: 1
    weight_filler {
      type: "msra"
    }
  }
}
layer {
  name: "conv2_3_1x1_reduce/bn"
  type: "BN"
  bottom: "conv2_3_1x1_reduce"
  top: "conv2_3_1x1_reduce"
  param {
    lr_mult: 1
    decay_mult: 0
  }
  param {
    lr_mult: 1
    decay_mult: 0
  }
  param {
    lr_mult: 0
    decay_mult: 0
  }
  param {
    lr_mult: 0
    decay_mult: 0
  }
  bn_param {
    slope_filler {
      type: "constant"
      value: 1
    }
    bias_filler {
      type: "constant"
      value: 0
    }
    momentum: 0.95
    frozen: true
  }
}
layer {
  name: "conv2_3_1x1_reduce/relu"
  type: "ReLU"
  bottom: "conv2_3_1x1_reduce"
  top: "conv2_3_1x1_reduce"
}
layer {
  name: "conv2_3_3x3"
  type: "Convolution"
  bottom: "conv2_3_1x1_reduce"
  top: "conv2_3_3x3"
  param {
    lr_mult: 1
    decay_mult: 1
  }
  convolution_param {
    num_output: 64
    bias_term: false
    pad: 1
    kernel_size: 3
    stride: 1
    weight_filler {
      type: "msra"
    }
  }
}
layer {
  name: "conv2_3_3x3/bn"
  type: "BN"
  bottom: "conv2_3_3x3"
  top: "conv2_3_3x3"
  param {
    lr_mult: 1
    decay_mult: 0
  }
  param {
    lr_mult: 1
    decay_mult: 0
  }
  param {
    lr_mult: 0
    decay_mult: 0
  }
  param {
    lr_mult: 0
    decay_mult: 0
  }
  bn_param {
    slope_filler {
      type: "constant"
      value: 1
    }
    bias_filler {
      type: "constant"
      value: 0
    }
    momentum: 0.95
    frozen: true
  }
}
layer {
  name: "conv2_3_3x3/relu"
  type: "ReLU"
  bottom: "conv2_3_3x3"
  top: "conv2_3_3x3"
}
layer {
  name: "conv2_3_1x1_increase"
  type: "Convolution"
  bottom: "conv2_3_3x3"
  top: "conv2_3_1x1_increase"
  param {
    lr_mult: 1
    decay_mult: 1
  }
  convolution_param {
    num_output: 256
    bias_term: false
    pad: 0
    kernel_size: 1
    stride: 1
    weight_filler {
      type: "msra"
    }
  }
}
layer {
  name: "conv2_3_1x1_increase/bn"
  type: "BN"
  bottom: "conv2_3_1x1_increase"
  top: "conv2_3_1x1_increase"
  param {
    lr_mult: 1
    decay_mult: 0
  }
  param {
    lr_mult: 1
    decay_mult: 0
  }
  param {
    lr_mult: 0
    decay_mult: 0
  }
  param {
    lr_mult: 0
    decay_mult: 0
  }
  bn_param {
    slope_filler {
      type: "constant"
      value: 1
    }
    bias_filler {
      type: "constant"
      value: 0
    }
    momentum: 0.95
    frozen: true
  }
}
layer {
  name: "conv2_3"
  type: "Eltwise"
  bottom: "conv2_2"
  bottom: "conv2_3_1x1_increase"
  top: "conv2_3"
  eltwise_param {
    operation: SUM
  }
}
layer {
  name: "conv2_3/relu"
  type: "ReLU"
  bottom: "conv2_3"
  top: "conv2_3"
}
layer {
  name: "conv3_1_1x1_reduce"
  type: "Convolution"
  bottom: "conv2_3"
  top: "conv3_1_1x1_reduce"
  param {
    lr_mult: 1
    decay_mult: 1
  }
  convolution_param {
    num_output: 128
    bias_term: false
    pad: 0
    kernel_size: 1
    stride: 2
    weight_filler {
      type: "msra"
    }
  }
}
layer {
  name: "conv3_1_1x1_reduce/bn"
  type: "BN"
  bottom: "conv3_1_1x1_reduce"
  top: "conv3_1_1x1_reduce"
  param {
    lr_mult: 1
    decay_mult: 0
  }
  param {
    lr_mult: 1
    decay_mult: 0
  }
  param {
    lr_mult: 0
    decay_mult: 0
  }
  param {
    lr_mult: 0
    decay_mult: 0
  }
  bn_param {
    slope_filler {
      type: "constant"
      value: 1
    }
    bias_filler {
      type: "constant"
      value: 0
    }
    momentum: 0.95
    frozen: true
  }
}
layer {
  name: "conv3_1_1x1_reduce/relu"
  type: "ReLU"
  bottom: "conv3_1_1x1_reduce"
  top: "conv3_1_1x1_reduce"
}
layer {
  name: "conv3_1_3x3"
  type: "Convolution"
  bottom: "conv3_1_1x1_reduce"
  top: "conv3_1_3x3"
  param {
    lr_mult: 1
    decay_mult: 1
  }
  convolution_param {
    num_output: 128
    bias_term: false
    pad: 1
    kernel_size: 3
    stride: 1
    weight_filler {
      type: "msra"
    }
  }
}
layer {
  name: "conv3_1_3x3/bn"
  type: "BN"
  bottom: "conv3_1_3x3"
  top: "conv3_1_3x3"
  param {
    lr_mult: 1
    decay_mult: 0
  }
  param {
    lr_mult: 1
    decay_mult: 0
  }
  param {
    lr_mult: 0
    decay_mult: 0
  }
  param {
    lr_mult: 0
    decay_mult: 0
  }
  bn_param {
    slope_filler {
      type: "constant"
      value: 1
    }
    bias_filler {
      type: "constant"
      value: 0
    }
    momentum: 0.95
    frozen: true
  }
}
layer {
  name: "conv3_1_3x3/relu"
  type: "ReLU"
  bottom: "conv3_1_3x3"
  top: "conv3_1_3x3"
}
layer {
  name: "conv3_1_1x1_increase"
  type: "Convolution"
  bottom: "conv3_1_3x3"
  top: "conv3_1_1x1_increase"
  param {
    lr_mult: 1
    decay_mult: 1
  }
  convolution_param {
    num_output: 512
    bias_term: false
    pad: 0
    kernel_size: 1
    stride: 1
    weight_filler {
      type: "msra"
    }
  }
}
layer {
  name: "conv3_1_1x1_increase/bn"
  type: "BN"
  bottom: "conv3_1_1x1_increase"
  top: "conv3_1_1x1_increase"
  param {
    lr_mult: 1
    decay_mult: 0
  }
  param {
    lr_mult: 1
    decay_mult: 0
  }
  param {
    lr_mult: 0
    decay_mult: 0
  }
  param {
    lr_mult: 0
    decay_mult: 0
  }
  bn_param {
    slope_filler {
      type: "constant"
      value: 1
    }
    bias_filler {
      type: "constant"
      value: 0
    }
    momentum: 0.95
    frozen: true
  }
}
layer {
  name: "conv3_1_1x1_proj"
  type: "Convolution"
  bottom: "conv2_3"
  top: "conv3_1_1x1_proj"
  param {
    lr_mult: 1
    decay_mult: 1
  }
  convolution_param {
    num_output: 512
    bias_term: false
    pad: 0
    kernel_size: 1
    stride: 2
    weight_filler {
      type: "msra"
    }
  }
}
layer {
  name: "conv3_1_1x1_proj/bn"
  type: "BN"
  bottom: "conv3_1_1x1_proj"
  top: "conv3_1_1x1_proj"
  param {
    lr_mult: 1
    decay_mult: 0
  }
  param {
    lr_mult: 1
    decay_mult: 0
  }
  param {
    lr_mult: 0
    decay_mult: 0
  }
  param {
    lr_mult: 0
    decay_mult: 0
  }
  bn_param {
    slope_filler {
      type: "constant"
      value: 1
    }
    bias_filler {
      type: "constant"
      value: 0
    }
    momentum: 0.95
    frozen: true
  }
}
layer {
  name: "conv3_1"
  type: "Eltwise"
  bottom: "conv3_1_1x1_proj"
  bottom: "conv3_1_1x1_increase"
  top: "conv3_1"
  eltwise_param {
    operation: SUM
  }
}
layer {
  name: "conv3_1/relu"
  type: "ReLU"
  bottom: "conv3_1"
  top: "conv3_1"
}
layer {
  name: "conv3_2_1x1_reduce"
  type: "Convolution"
  bottom: "conv3_1"
  top: "conv3_2_1x1_reduce"
  param {
    lr_mult: 1
    decay_mult: 1
  }
  convolution_param {
    num_output: 128
    bias_term: false
    pad: 0
    kernel_size: 1
    stride: 1
    weight_filler {
      type: "msra"
    }
  }
}
layer {
  name: "conv3_2_1x1_reduce/bn"
  type: "BN"
  bottom: "conv3_2_1x1_reduce"
  top: "conv3_2_1x1_reduce"
  param {
    lr_mult: 1
    decay_mult: 0
  }
  param {
    lr_mult: 1
    decay_mult: 0
  }
  param {
    lr_mult: 0
    decay_mult: 0
  }
  param {
    lr_mult: 0
    decay_mult: 0
  }
  bn_param {
    slope_filler {
      type: "constant"
      value: 1
    }
    bias_filler {
      type: "constant"
      value: 0
    }
    momentum: 0.95
    frozen: true
  }
}
layer {
  name: "conv3_2_1x1_reduce/relu"
  type: "ReLU"
  bottom: "conv3_2_1x1_reduce"
  top: "conv3_2_1x1_reduce"
}
layer {
  name: "conv3_2_3x3"
  type: "Convolution"
  bottom: "conv3_2_1x1_reduce"
  top: "conv3_2_3x3"
  param {
    lr_mult: 1
    decay_mult: 1
  }
  convolution_param {
    num_output: 128
    bias_term: false
    pad: 1
    kernel_size: 3
    stride: 1
    weight_filler {
      type: "msra"
    }
  }
}
layer {
  name: "conv3_2_3x3/bn"
  type: "BN"
  bottom: "conv3_2_3x3"
  top: "conv3_2_3x3"
  param {
    lr_mult: 1
    decay_mult: 0
  }
  param {
    lr_mult: 1
    decay_mult: 0
  }
  param {
    lr_mult: 0
    decay_mult: 0
  }
  param {
    lr_mult: 0
    decay_mult: 0
  }
  bn_param {
    slope_filler {
      type: "constant"
      value: 1
    }
    bias_filler {
      type: "constant"
      value: 0
    }
    momentum: 0.95
    frozen: true
  }
}
layer {
  name: "conv3_2_3x3/relu"
  type: "ReLU"
  bottom: "conv3_2_3x3"
  top: "conv3_2_3x3"
}
layer {
  name: "conv3_2_1x1_increase"
  type: "Convolution"
  bottom: "conv3_2_3x3"
  top: "conv3_2_1x1_increase"
  param {
    lr_mult: 1
    decay_mult: 1
  }
  convolution_param {
    num_output: 512
    bias_term: false
    pad: 0
    kernel_size: 1
    stride: 1
    weight_filler {
      type: "msra"
    }
  }
}
layer {
  name: "conv3_2_1x1_increase/bn"
  type: "BN"
  bottom: "conv3_2_1x1_increase"
  top: "conv3_2_1x1_increase"
  param {
    lr_mult: 1
    decay_mult: 0
  }
  param {
    lr_mult: 1
    decay_mult: 0
  }
  param {
    lr_mult: 0
    decay_mult: 0
  }
  param {
    lr_mult: 0
    decay_mult: 0
  }
  bn_param {
    slope_filler {
      type: "constant"
      value: 1
    }
    bias_filler {
      type: "constant"
      value: 0
    }
    momentum: 0.95
    frozen: true
  }
}
layer {
  name: "conv3_2"
  type: "Eltwise"
  bottom: "conv3_1"
  bottom: "conv3_2_1x1_increase"
  top: "conv3_2"
  eltwise_param {
    operation: SUM
  }
}
layer {
  name: "conv3_2/relu"
  type: "ReLU"
  bottom: "conv3_2"
  top: "conv3_2"
}
layer {
  name: "conv3_3_1x1_reduce"
  type: "Convolution"
  bottom: "conv3_2"
  top: "conv3_3_1x1_reduce"
  param {
    lr_mult: 1
    decay_mult: 1
  }
  convolution_param {
    num_output: 128
    bias_term: false
    pad: 0
    kernel_size: 1
    stride: 1
    weight_filler {
      type: "msra"
    }
  }
}
layer {
  name: "conv3_3_1x1_reduce/bn"
  type: "BN"
  bottom: "conv3_3_1x1_reduce"
  top: "conv3_3_1x1_reduce"
  param {
    lr_mult: 1
    decay_mult: 0
  }
  param {
    lr_mult: 1
    decay_mult: 0
  }
  param {
    lr_mult: 0
    decay_mult: 0
  }
  param {
    lr_mult: 0
    decay_mult: 0
  }
  bn_param {
    slope_filler {
      type: "constant"
      value: 1
    }
    bias_filler {
      type: "constant"
      value: 0
    }
    momentum: 0.95
    frozen: true
  }
}
layer {
  name: "conv3_3_1x1_reduce/relu"
  type: "ReLU"
  bottom: "conv3_3_1x1_reduce"
  top: "conv3_3_1x1_reduce"
}
layer {
  name: "conv3_3_3x3"
  type: "Convolution"
  bottom: "conv3_3_1x1_reduce"
  top: "conv3_3_3x3"
  param {
    lr_mult: 1
    decay_mult: 1
  }
  convolution_param {
    num_output: 128
    bias_term: false
    pad: 1
    kernel_size: 3
    stride: 1
    weight_filler {
      type: "msra"
    }
  }
}
layer {
  name: "conv3_3_3x3/bn"
  type: "BN"
  bottom: "conv3_3_3x3"
  top: "conv3_3_3x3"
  param {
    lr_mult: 1
    decay_mult: 0
  }
  param {
    lr_mult: 1
    decay_mult: 0
  }
  param {
    lr_mult: 0
    decay_mult: 0
  }
  param {
    lr_mult: 0
    decay_mult: 0
  }
  bn_param {
    slope_filler {
      type: "constant"
      value: 1
    }
    bias_filler {
      type: "constant"
      value: 0
    }
    momentum: 0.95
    frozen: true
  }
}
layer {
  name: "conv3_3_3x3/relu"
  type: "ReLU"
  bottom: "conv3_3_3x3"
  top: "conv3_3_3x3"
}
layer {
  name: "conv3_3_1x1_increase"
  type: "Convolution"
  bottom: "conv3_3_3x3"
  top: "conv3_3_1x1_increase"
  param {
    lr_mult: 1
    decay_mult: 1
  }
  convolution_param {
    num_output: 512
    bias_term: false
    pad: 0
    kernel_size: 1
    stride: 1
    weight_filler {
      type: "msra"
    }
  }
}
layer {
  name: "conv3_3_1x1_increase/bn"
  type: "BN"
  bottom: "conv3_3_1x1_increase"
  top: "conv3_3_1x1_increase"
  param {
    lr_mult: 1
    decay_mult: 0
  }
  param {
    lr_mult: 1
    decay_mult: 0
  }
  param {
    lr_mult: 0
    decay_mult: 0
  }
  param {
    lr_mult: 0
    decay_mult: 0
  }
  bn_param {
    slope_filler {
      type: "constant"
      value: 1
    }
    bias_filler {
      type: "constant"
      value: 0
    }
    momentum: 0.95
    frozen: true
  }
}
layer {
  name: "conv3_3"
  type: "Eltwise"
  bottom: "conv3_2"
  bottom: "conv3_3_1x1_increase"
  top: "conv3_3"
  eltwise_param {
    operation: SUM
  }
}
layer {
  name: "conv3_3/relu"
  type: "ReLU"
  bottom: "conv3_3"
  top: "conv3_3"
}
layer {
  name: "conv3_4_1x1_reduce"
  type: "Convolution"
  bottom: "conv3_3"
  top: "conv3_4_1x1_reduce"
  param {
    lr_mult: 1
    decay_mult: 1
  }
  convolution_param {
    num_output: 128
    bias_term: false
    pad: 0
    kernel_size: 1
    stride: 1
    weight_filler {
      type: "msra"
    }
  }
}
layer {
  name: "conv3_4_1x1_reduce/bn"
  type: "BN"
  bottom: "conv3_4_1x1_reduce"
  top: "conv3_4_1x1_reduce"
  param {
    lr_mult: 1
    decay_mult: 0
  }
  param {
    lr_mult: 1
    decay_mult: 0
  }
  param {
    lr_mult: 0
    decay_mult: 0
  }
  param {
    lr_mult: 0
    decay_mult: 0
  }
  bn_param {
    slope_filler {
      type: "constant"
      value: 1
    }
    bias_filler {
      type: "constant"
      value: 0
    }
    momentum: 0.95
    frozen: true
  }
}
layer {
  name: "conv3_4_1x1_reduce/relu"
  type: "ReLU"
  bottom: "conv3_4_1x1_reduce"
  top: "conv3_4_1x1_reduce"
}
layer {
  name: "conv3_4_3x3"
  type: "Convolution"
  bottom: "conv3_4_1x1_reduce"
  top: "conv3_4_3x3"
  param {
    lr_mult: 1
    decay_mult: 1
  }
  convolution_param {
    num_output: 128
    bias_term: false
    pad: 1
    kernel_size: 3
    stride: 1
    weight_filler {
      type: "msra"
    }
  }
}
layer {
  name: "conv3_4_3x3/bn"
  type: "BN"
  bottom: "conv3_4_3x3"
  top: "conv3_4_3x3"
  param {
    lr_mult: 1
    decay_mult: 0
  }
  param {
    lr_mult: 1
    decay_mult: 0
  }
  param {
    lr_mult: 0
    decay_mult: 0
  }
  param {
    lr_mult: 0
    decay_mult: 0
  }
  bn_param {
    slope_filler {
      type: "constant"
      value: 1
    }
    bias_filler {
      type: "constant"
      value: 0
    }
    momentum: 0.95
    frozen: true
  }
}
layer {
  name: "conv3_4_3x3/relu"
  type: "ReLU"
  bottom: "conv3_4_3x3"
  top: "conv3_4_3x3"
}
layer {
  name: "conv3_4_1x1_increase"
  type: "Convolution"
  bottom: "conv3_4_3x3"
  top: "conv3_4_1x1_increase"
  param {
    lr_mult: 1
    decay_mult: 1
  }
  convolution_param {
    num_output: 512
    bias_term: false
    pad: 0
    kernel_size: 1
    stride: 1
    weight_filler {
      type: "msra"
    }
  }
}
layer {
  name: "conv3_4_1x1_increase/bn"
  type: "BN"
  bottom: "conv3_4_1x1_increase"
  top: "conv3_4_1x1_increase"
  param {
    lr_mult: 1
    decay_mult: 0
  }
  param {
    lr_mult: 1
    decay_mult: 0
  }
  param {
    lr_mult: 0
    decay_mult: 0
  }
  param {
    lr_mult: 0
    decay_mult: 0
  }
  bn_param {
    slope_filler {
      type: "constant"
      value: 1
    }
    bias_filler {
      type: "constant"
      value: 0
    }
    momentum: 0.95
    frozen: true
  }
}
layer {
  name: "conv3_4"
  type: "Eltwise"
  bottom: "conv3_3"
  bottom: "conv3_4_1x1_increase"
  top: "conv3_4"
  eltwise_param {
    operation: SUM
  }
}
layer {
  name: "conv3_4/relu"
  type: "ReLU"
  bottom: "conv3_4"
  top: "conv3_4"
}
layer {
  name: "conv4_1_1x1_reduce"
  type: "Convolution"
  bottom: "conv3_4"
  top: "conv4_1_1x1_reduce"
  param {
    lr_mult: 1
    decay_mult: 1
  }
  convolution_param {
    num_output: 256
    bias_term: false
    pad: 0
    kernel_size: 1
    stride: 1
    weight_filler {
      type: "msra"
    }
  }
}
layer {
  name: "conv4_1_1x1_reduce/bn"
  type: "BN"
  bottom: "conv4_1_1x1_reduce"
  top: "conv4_1_1x1_reduce"
  param {
    lr_mult: 1
    decay_mult: 0
  }
  param {
    lr_mult: 1
    decay_mult: 0
  }
  param {
    lr_mult: 0
    decay_mult: 0
  }
  param {
    lr_mult: 0
    decay_mult: 0
  }
  bn_param {
    slope_filler {
      type: "constant"
      value: 1
    }
    bias_filler {
      type: "constant"
      value: 0
    }
    momentum: 0.95
    frozen: true
  }
}
layer {
  name: "conv4_1_1x1_reduce/relu"
  type: "ReLU"
  bottom: "conv4_1_1x1_reduce"
  top: "conv4_1_1x1_reduce"
}
layer {
  name: "conv4_1_3x3"
  type: "Convolution"
  bottom: "conv4_1_1x1_reduce"
  top: "conv4_1_3x3"
  param {
    lr_mult: 1
    decay_mult: 1
  }
  convolution_param {
    num_output: 256
    bias_term: false
    pad: 2
    kernel_size: 3
    stride: 1
    weight_filler {
      type: "msra"
    }
    dilation: 2
  }
}
layer {
  name: "conv4_1_3x3/bn"
  type: "BN"
  bottom: "conv4_1_3x3"
  top: "conv4_1_3x3"
  param {
    lr_mult: 1
    decay_mult: 0
  }
  param {
    lr_mult: 1
    decay_mult: 0
  }
  param {
    lr_mult: 0
    decay_mult: 0
  }
  param {
    lr_mult: 0
    decay_mult: 0
  }
  bn_param {
    slope_filler {
      type: "constant"
      value: 1
    }
    bias_filler {
      type: "constant"
      value: 0
    }
    momentum: 0.95
    frozen: true
  }
}
layer {
  name: "conv4_1_3x3/relu"
  type: "ReLU"
  bottom: "conv4_1_3x3"
  top: "conv4_1_3x3"
}
layer {
  name: "conv4_1_1x1_increase"
  type: "Convolution"
  bottom: "conv4_1_3x3"
  top: "conv4_1_1x1_increase"
  param {
    lr_mult: 1
    decay_mult: 1
  }
  convolution_param {
    num_output: 1024
    bias_term: false
    pad: 0
    kernel_size: 1
    stride: 1
    weight_filler {
      type: "msra"
    }
  }
}
layer {
  name: "conv4_1_1x1_increase/bn"
  type: "BN"
  bottom: "conv4_1_1x1_increase"
  top: "conv4_1_1x1_increase"
  param {
    lr_mult: 1
    decay_mult: 0
  }
  param {
    lr_mult: 1
    decay_mult: 0
  }
  param {
    lr_mult: 0
    decay_mult: 0
  }
  param {
    lr_mult: 0
    decay_mult: 0
  }
  bn_param {
    slope_filler {
      type: "constant"
      value: 1
    }
    bias_filler {
      type: "constant"
      value: 0
    }
    momentum: 0.95
    frozen: true
  }
}
layer {
  name: "conv4_1_1x1_proj"
  type: "Convolution"
  bottom: "conv3_4"
  top: "conv4_1_1x1_proj"
  param {
    lr_mult: 1
    decay_mult: 1
  }
  convolution_param {
    num_output: 1024
    bias_term: false
    pad: 0
    kernel_size: 1
    stride: 1
    weight_filler {
      type: "msra"
    }
  }
}
layer {
  name: "conv4_1_1x1_proj/bn"
  type: "BN"
  bottom: "conv4_1_1x1_proj"
  top: "conv4_1_1x1_proj"
  param {
    lr_mult: 1
    decay_mult: 0
  }
  param {
    lr_mult: 1
    decay_mult: 0
  }
  param {
    lr_mult: 0
    decay_mult: 0
  }
  param {
    lr_mult: 0
    decay_mult: 0
  }
  bn_param {
    slope_filler {
      type: "constant"
      value: 1
    }
    bias_filler {
      type: "constant"
      value: 0
    }
    momentum: 0.95
    frozen: true
  }
}
layer {
  name: "conv4_1"
  type: "Eltwise"
  bottom: "conv4_1_1x1_proj"
  bottom: "conv4_1_1x1_increase"
  top: "conv4_1"
  eltwise_param {
    operation: SUM
  }
}
layer {
  name: "conv4_1/relu"
  type: "ReLU"
  bottom: "conv4_1"
  top: "conv4_1"
}
layer {
  name: "conv4_2_1x1_reduce"
  type: "Convolution"
  bottom: "conv4_1"
  top: "conv4_2_1x1_reduce"
  param {
    lr_mult: 1
    decay_mult: 1
  }
  convolution_param {
    num_output: 256
    bias_term: false
    pad: 0
    kernel_size: 1
    stride: 1
    weight_filler {
      type: "msra"
    }
  }
}
layer {
  name: "conv4_2_1x1_reduce/bn"
  type: "BN"
  bottom: "conv4_2_1x1_reduce"
  top: "conv4_2_1x1_reduce"
  param {
    lr_mult: 1
    decay_mult: 0
  }
  param {
    lr_mult: 1
    decay_mult: 0
  }
  param {
    lr_mult: 0
    decay_mult: 0
  }
  param {
    lr_mult: 0
    decay_mult: 0
  }
  bn_param {
    slope_filler {
      type: "constant"
      value: 1
    }
    bias_filler {
      type: "constant"
      value: 0
    }
    momentum: 0.95
    frozen: true
  }
}
layer {
  name: "conv4_2_1x1_reduce/relu"
  type: "ReLU"
  bottom: "conv4_2_1x1_reduce"
  top: "conv4_2_1x1_reduce"
}
layer {
  name: "conv4_2_3x3"
  type: "Convolution"
  bottom: "conv4_2_1x1_reduce"
  top: "conv4_2_3x3"
  param {
    lr_mult: 1
    decay_mult: 1
  }
  convolution_param {
    num_output: 256
    bias_term: false
    pad: 2
    kernel_size: 3
    stride: 1
    weight_filler {
      type: "msra"
    }
    dilation: 2
  }
}
layer {
  name: "conv4_2_3x3/bn"
  type: "BN"
  bottom: "conv4_2_3x3"
  top: "conv4_2_3x3"
  param {
    lr_mult: 1
    decay_mult: 0
  }
  param {
    lr_mult: 1
    decay_mult: 0
  }
  param {
    lr_mult: 0
    decay_mult: 0
  }
  param {
    lr_mult: 0
    decay_mult: 0
  }
  bn_param {
    slope_filler {
      type: "constant"
      value: 1
    }
    bias_filler {
      type: "constant"
      value: 0
    }
    momentum: 0.95
    frozen: true
  }
}
layer {
  name: "conv4_2_3x3/relu"
  type: "ReLU"
  bottom: "conv4_2_3x3"
  top: "conv4_2_3x3"
}
layer {
  name: "conv4_2_1x1_increase"
  type: "Convolution"
  bottom: "conv4_2_3x3"
  top: "conv4_2_1x1_increase"
  param {
    lr_mult: 1
    decay_mult: 1
  }
  convolution_param {
    num_output: 1024
    bias_term: false
    pad: 0
    kernel_size: 1
    stride: 1
    weight_filler {
I0316 22:50:05.979341 26470 net.cpp:413] Input 0 -> data
I0316 22:50:06.026928 26470 layer_factory.hpp:77] Creating layer conv1_1_3x3_s2
I0316 22:50:06.026963 26470 net.cpp:106] Creating Layer conv1_1_3x3_s2
I0316 22:50:06.026967 26470 net.cpp:454] conv1_1_3x3_s2 <- data
I0316 22:50:06.026970 26470 net.cpp:411] conv1_1_3x3_s2 -> conv1_1_3x3_s2
I0316 22:50:06.027765 26470 net.cpp:150] Setting up conv1_1_3x3_s2
I0316 22:50:06.027788 26470 net.cpp:157] Top shape: 1 64 237 237 (3594816)
I0316 22:50:06.027791 26470 net.cpp:165] Memory required for data: 14379264
I0316 22:50:06.027802 26470 layer_factory.hpp:77] Creating layer conv1_1_3x3_s2/bn
I0316 22:50:06.027817 26470 net.cpp:106] Creating Layer conv1_1_3x3_s2/bn
I0316 22:50:06.027822 26470 net.cpp:454] conv1_1_3x3_s2/bn <- conv1_1_3x3_s2
I0316 22:50:06.027827 26470 net.cpp:397] conv1_1_3x3_s2/bn -> conv1_1_3x3_s2 (in-place)
I0316 22:50:06.028831 26470 net.cpp:150] Setting up conv1_1_3x3_s2/bn
I0316 22:50:06.028851 26470 net.cpp:157] Top shape: 1 64 237 237 (3594816)
I0316 22:50:06.028854 26470 net.cpp:165] Memory required for data: 28758528
I0316 22:50:06.028870 26470 layer_factory.hpp:77] Creating layer conv1_1_3x3_s2/relu
I0316 22:50:06.028883 26470 net.cpp:106] Creating Layer conv1_1_3x3_s2/relu
I0316 22:50:06.028888 26470 net.cpp:454] conv1_1_3x3_s2/relu <- conv1_1_3x3_s2
I0316 22:50:06.028892 26470 net.cpp:397] conv1_1_3x3_s2/relu -> conv1_1_3x3_s2 (in-place)
I0316 22:50:06.028911 26470 net.cpp:150] Setting up conv1_1_3x3_s2/relu
I0316 22:50:06.028916 26470 net.cpp:157] Top shape: 1 64 237 237 (3594816)
I0316 22:50:06.028918 26470 net.cpp:165] Memory required for data: 43137792
I0316 22:50:06.028921 26470 layer_factory.hpp:77] Creating layer conv1_2_3x3
I0316 22:50:06.028933 26470 net.cpp:106] Creating Layer conv1_2_3x3
I0316 22:50:06.028935 26470 net.cpp:454] conv1_2_3x3 <- conv1_1_3x3_s2
I0316 22:50:06.028939 26470 net.cpp:411] conv1_2_3x3 -> conv1_2_3x3
I0316 22:50:06.030221 26470 net.cpp:150] Setting up conv1_2_3x3
I0316 22:50:06.030247 26470 net.cpp:157] Top shape: 1 64 237 237 (3594816)
I0316 22:50:06.030251 26470 net.cpp:165] Memory required for data: 57517056
I0316 22:50:06.030258 26470 layer_factory.hpp:77] Creating layer conv1_2_3x3/bn
I0316 22:50:06.030273 26470 net.cpp:106] Creating Layer conv1_2_3x3/bn
I0316 22:50:06.030278 26470 net.cpp:454] conv1_2_3x3/bn <- conv1_2_3x3
I0316 22:50:06.030287 26470 net.cpp:397] conv1_2_3x3/bn -> conv1_2_3x3 (in-place)
I0316 22:50:06.030530 26470 net.cpp:150] Setting up conv1_2_3x3/bn
I0316 22:50:06.030539 26470 net.cpp:157] Top shape: 1 64 237 237 (3594816)
I0316 22:50:06.030542 26470 net.cpp:165] Memory required for data: 71896320
I0316 22:50:06.030555 26470 layer_factory.hpp:77] Creating layer conv1_2_3x3/relu
I0316 22:50:06.030563 26470 net.cpp:106] Creating Layer conv1_2_3x3/relu
I0316 22:50:06.030566 26470 net.cpp:454] conv1_2_3x3/relu <- conv1_2_3x3
I0316 22:50:06.030570 26470 net.cpp:397] conv1_2_3x3/relu -> conv1_2_3x3 (in-place)
I0316 22:50:06.030575 26470 net.cpp:150] Setting up conv1_2_3x3/relu
I0316 22:50:06.030580 26470 net.cpp:157] Top shape: 1 64 237 237 (3594816)
I0316 22:50:06.030582 26470 net.cpp:165] Memory required for data: 86275584
I0316 22:50:06.030586 26470 layer_factory.hpp:77] Creating layer conv1_3_3x3
I0316 22:50:06.030593 26470 net.cpp:106] Creating Layer conv1_3_3x3
I0316 22:50:06.030597 26470 net.cpp:454] conv1_3_3x3 <- conv1_2_3x3
I0316 22:50:06.030601 26470 net.cpp:411] conv1_3_3x3 -> conv1_3_3x3
I0316 22:50:06.034551 26470 net.cpp:150] Setting up conv1_3_3x3
I0316 22:50:06.034675 26470 net.cpp:157] Top shape: 1 128 237 237 (7189632)
I0316 22:50:06.034690 26470 net.cpp:165] Memory required for data: 115034112
I0316 22:50:06.034708 26470 layer_factory.hpp:77] Creating layer conv1_3_3x3/bn
I0316 22:50:06.034734 26470 net.cpp:106] Creating Layer conv1_3_3x3/bn
I0316 22:50:06.034745 26470 net.cpp:454] conv1_3_3x3/bn <- conv1_3_3x3
I0316 22:50:06.034759 26470 net.cpp:397] conv1_3_3x3/bn -> conv1_3_3x3 (in-place)
I0316 22:50:06.035045 26470 net.cpp:150] Setting up conv1_3_3x3/bn
I0316 22:50:06.035064 26470 net.cpp:157] Top shape: 1 128 237 237 (7189632)
I0316 22:50:06.035120 26470 net.cpp:165] Memory required for data: 143792640
I0316 22:50:06.035135 26470 layer_factory.hpp:77] Creating layer conv1_3_3x3/relu
I0316 22:50:06.035157 26470 net.cpp:106] Creating Layer conv1_3_3x3/relu
I0316 22:50:06.035167 26470 net.cpp:454] conv1_3_3x3/relu <- conv1_3_3x3
I0316 22:50:06.035178 26470 net.cpp:397] conv1_3_3x3/relu -> conv1_3_3x3 (in-place)
I0316 22:50:06.035190 26470 net.cpp:150] Setting up conv1_3_3x3/relu
I0316 22:50:06.035202 26470 net.cpp:157] Top shape: 1 128 237 237 (7189632)
I0316 22:50:06.035217 26470 net.cpp:165] Memory required for data: 172551168
I0316 22:50:06.035225 26470 layer_factory.hpp:77] Creating layer pool1_3x3_s2
I0316 22:50:06.035236 26470 net.cpp:106] Creating Layer pool1_3x3_s2
I0316 22:50:06.035240 26470 net.cpp:454] pool1_3x3_s2 <- conv1_3_3x3
I0316 22:50:06.035245 26470 net.cpp:411] pool1_3x3_s2 -> pool1_3x3_s2
I0316 22:50:06.035297 26470 net.cpp:150] Setting up pool1_3x3_s2
I0316 22:50:06.035302 26470 net.cpp:157] Top shape: 1 128 119 119 (1812608)
I0316 22:50:06.035305 26470 net.cpp:165] Memory required for data: 179801600
I0316 22:50:06.035308 26470 layer_factory.hpp:77] Creating layer pool1_3x3_s2_pool1_3x3_s2_0_split
I0316 22:50:06.035348 26470 net.cpp:106] Creating Layer pool1_3x3_s2_pool1_3x3_s2_0_split
I0316 22:50:06.035351 26470 net.cpp:454] pool1_3x3_s2_pool1_3x3_s2_0_split <- pool1_3x3_s2
I0316 22:50:06.035356 26470 net.cpp:411] pool1_3x3_s2_pool1_3x3_s2_0_split -> pool1_3x3_s2_pool1_3x3_s2_0_split_0
I0316 22:50:06.035361 26470 net.cpp:411] pool1_3x3_s2_pool1_3x3_s2_0_split -> pool1_3x3_s2_pool1_3x3_s2_0_split_1
I0316 22:50:06.035387 26470 net.cpp:150] Setting up pool1_3x3_s2_pool1_3x3_s2_0_split
I0316 22:50:06.035392 26470 net.cpp:157] Top shape: 1 128 119 119 (1812608)
I0316 22:50:06.035394 26470 net.cpp:157] Top shape: 1 128 119 119 (1812608)
I0316 22:50:06.035398 26470 net.cpp:165] Memory required for data: 194302464
I0316 22:50:06.035400 26470 layer_factory.hpp:77] Creating layer conv2_1_1x1_reduce
I0316 22:50:06.035413 26470 net.cpp:106] Creating Layer conv2_1_1x1_reduce
I0316 22:50:06.035415 26470 net.cpp:454] conv2_1_1x1_reduce <- pool1_3x3_s2_pool1_3x3_s2_0_split_0
I0316 22:50:06.035421 26470 net.cpp:411] conv2_1_1x1_reduce -> conv2_1_1x1_reduce
I0316 22:50:06.037241 26470 net.cpp:150] Setting up conv2_1_1x1_reduce
I0316 22:50:06.037287 26470 net.cpp:157] Top shape: 1 64 119 119 (906304)
I0316 22:50:06.037292 26470 net.cpp:165] Memory required for data: 197927680
I0316 22:50:06.037307 26470 layer_factory.hpp:77] Creating layer conv2_1_1x1_reduce/bn
I0316 22:50:06.037327 26470 net.cpp:106] Creating Layer conv2_1_1x1_reduce/bn
I0316 22:50:06.037333 26470 net.cpp:454] conv2_1_1x1_reduce/bn <- conv2_1_1x1_reduce
I0316 22:50:06.037343 26470 net.cpp:397] conv2_1_1x1_reduce/bn -> conv2_1_1x1_reduce (in-place)
I0316 22:50:06.037544 26470 net.cpp:150] Setting up conv2_1_1x1_reduce/bn
I0316 22:50:06.037550 26470 net.cpp:157] Top shape: 1 64 119 119 (906304)
I0316 22:50:06.037554 26470 net.cpp:165] Memory required for data: 201552896
I0316 22:50:06.037570 26470 layer_factory.hpp:77] Creating layer conv2_1_1x1_reduce/relu
I0316 22:50:06.037580 26470 net.cpp:106] Creating Layer conv2_1_1x1_reduce/relu
I0316 22:50:06.037583 26470 net.cpp:454] conv2_1_1x1_reduce/relu <- conv2_1_1x1_reduce
I0316 22:50:06.037588 26470 net.cpp:397] conv2_1_1x1_reduce/relu -> conv2_1_1x1_reduce (in-place)
I0316 22:50:06.037595 26470 net.cpp:150] Setting up conv2_1_1x1_reduce/relu
I0316 22:50:06.037600 26470 net.cpp:157] Top shape: 1 64 119 119 (906304)
I0316 22:50:06.037601 26470 net.cpp:165] Memory required for data: 205178112
I0316 22:50:06.037603 26470 layer_factory.hpp:77] Creating layer conv2_1_3x3
I0316 22:50:06.037614 26470 net.cpp:106] Creating Layer conv2_1_3x3
I0316 22:50:06.037617 26470 net.cpp:454] conv2_1_3x3 <- conv2_1_1x1_reduce
I0316 22:50:06.037622 26470 net.cpp:411] conv2_1_3x3 -> conv2_1_3x3
I0316 22:50:06.038940 26470 net.cpp:150] Setting up conv2_1_3x3
I0316 22:50:06.038959 26470 net.cpp:157] Top shape: 1 64 119 119 (906304)
I0316 22:50:06.038961 26470 net.cpp:165] Memory required for data: 208803328
I0316 22:50:06.038969 26470 layer_factory.hpp:77] Creating layer conv2_1_3x3/bn
I0316 22:50:06.038980 26470 net.cpp:106] Creating Layer conv2_1_3x3/bn
I0316 22:50:06.038985 26470 net.cpp:454] conv2_1_3x3/bn <- conv2_1_3x3
I0316 22:50:06.038992 26470 net.cpp:397] conv2_1_3x3/bn -> conv2_1_3x3 (in-place)
I0316 22:50:06.039253 26470 net.cpp:150] Setting up conv2_1_3x3/bn
I0316 22:50:06.039265 26470 net.cpp:157] Top shape: 1 64 119 119 (906304)
I0316 22:50:06.039268 26470 net.cpp:165] Memory required for data: 212428544
I0316 22:50:06.039275 26470 layer_factory.hpp:77] Creating layer conv2_1_3x3/relu
I0316 22:50:06.039286 26470 net.cpp:106] Creating Layer conv2_1_3x3/relu
I0316 22:50:06.039289 26470 net.cpp:454] conv2_1_3x3/relu <- conv2_1_3x3
I0316 22:50:06.039294 26470 net.cpp:397] conv2_1_3x3/relu -> conv2_1_3x3 (in-place)
I0316 22:50:06.039299 26470 net.cpp:150] Setting up conv2_1_3x3/relu
I0316 22:50:06.039304 26470 net.cpp:157] Top shape: 1 64 119 119 (906304)
I0316 22:50:06.039306 26470 net.cpp:165] Memory required for data: 216053760
I0316 22:50:06.039309 26470 layer_factory.hpp:77] Creating layer conv2_1_1x1_increase
I0316 22:50:06.039319 26470 net.cpp:106] Creating Layer conv2_1_1x1_increase
I0316 22:50:06.039321 26470 net.cpp:454] conv2_1_1x1_increase <- conv2_1_3x3
I0316 22:50:06.039326 26470 net.cpp:411] conv2_1_1x1_increase -> conv2_1_1x1_increase
I0316 22:50:06.039999 26470 net.cpp:150] Setting up conv2_1_1x1_increase
I0316 22:50:06.040009 26470 net.cpp:157] Top shape: 1 256 119 119 (3625216)
I0316 22:50:06.040011 26470 net.cpp:165] Memory required for data: 230554624
I0316 22:50:06.040016 26470 layer_factory.hpp:77] Creating layer conv2_1_1x1_increase/bn
I0316 22:50:06.040029 26470 net.cpp:106] Creating Layer conv2_1_1x1_increase/bn
I0316 22:50:06.040032 26470 net.cpp:454] conv2_1_1x1_increase/bn <- conv2_1_1x1_increase
I0316 22:50:06.040037 26470 net.cpp:397] conv2_1_1x1_increase/bn -> conv2_1_1x1_increase (in-place)
I0316 22:50:06.040201 26470 net.cpp:150] Setting up conv2_1_1x1_increase/bn
I0316 22:50:06.040207 26470 net.cpp:157] Top shape: 1 256 119 119 (3625216)
I0316 22:50:06.040210 26470 net.cpp:165] Memory required for data: 245055488
I0316 22:50:06.040217 26470 layer_factory.hpp:77] Creating layer conv2_1_1x1_proj
I0316 22:50:06.040228 26470 net.cpp:106] Creating Layer conv2_1_1x1_proj
I0316 22:50:06.040233 26470 net.cpp:454] conv2_1_1x1_proj <- pool1_3x3_s2_pool1_3x3_s2_0_split_1
I0316 22:50:06.040240 26470 net.cpp:411] conv2_1_1x1_proj -> conv2_1_1x1_proj
I0316 22:50:06.041458 26470 net.cpp:150] Setting up conv2_1_1x1_proj
I0316 22:50:06.041476 26470 net.cpp:157] Top shape: 1 256 119 119 (3625216)
I0316 22:50:06.041477 26470 net.cpp:165] Memory required for data: 259556352
I0316 22:50:06.041486 26470 layer_factory.hpp:77] Creating layer conv2_1_1x1_proj/bn
I0316 22:50:06.041496 26470 net.cpp:106] Creating Layer conv2_1_1x1_proj/bn
I0316 22:50:06.041498 26470 net.cpp:454] conv2_1_1x1_proj/bn <- conv2_1_1x1_proj
I0316 22:50:06.041503 26470 net.cpp:397] conv2_1_1x1_proj/bn -> conv2_1_1x1_proj (in-place)
I0316 22:50:06.041685 26470 net.cpp:150] Setting up conv2_1_1x1_proj/bn
I0316 22:50:06.041692 26470 net.cpp:157] Top shape: 1 256 119 119 (3625216)
I0316 22:50:06.041694 26470 net.cpp:165] Memory required for data: 274057216
I0316 22:50:06.041712 26470 layer_factory.hpp:77] Creating layer conv2_1
I0316 22:50:06.041741 26470 net.cpp:106] Creating Layer conv2_1
I0316 22:50:06.041746 26470 net.cpp:454] conv2_1 <- conv2_1_1x1_proj
I0316 22:50:06.041751 26470 net.cpp:454] conv2_1 <- conv2_1_1x1_increase
I0316 22:50:06.041759 26470 net.cpp:411] conv2_1 -> conv2_1
I0316 22:50:06.041798 26470 net.cpp:150] Setting up conv2_1
I0316 22:50:06.041805 26470 net.cpp:157] Top shape: 1 256 119 119 (3625216)
I0316 22:50:06.041808 26470 net.cpp:165] Memory required for data: 288558080
I0316 22:50:06.041812 26470 layer_factory.hpp:77] Creating layer conv2_1/relu
I0316 22:50:06.041821 26470 net.cpp:106] Creating Layer conv2_1/relu
I0316 22:50:06.041824 26470 net.cpp:454] conv2_1/relu <- conv2_1
I0316 22:50:06.041831 26470 net.cpp:397] conv2_1/relu -> conv2_1 (in-place)
I0316 22:50:06.041837 26470 net.cpp:150] Setting up conv2_1/relu
I0316 22:50:06.041843 26470 net.cpp:157] Top shape: 1 256 119 119 (3625216)
I0316 22:50:06.041847 26470 net.cpp:165] Memory required for data: 303058944
I0316 22:50:06.041851 26470 layer_factory.hpp:77] Creating layer conv2_1_conv2_1/relu_0_split
I0316 22:50:06.041858 26470 net.cpp:106] Creating Layer conv2_1_conv2_1/relu_0_split
I0316 22:50:06.041862 26470 net.cpp:454] conv2_1_conv2_1/relu_0_split <- conv2_1
I0316 22:50:06.041869 26470 net.cpp:411] conv2_1_conv2_1/relu_0_split -> conv2_1_conv2_1/relu_0_split_0
I0316 22:50:06.041877 26470 net.cpp:411] conv2_1_conv2_1/relu_0_split -> conv2_1_conv2_1/relu_0_split_1
I0316 22:50:06.041909 26470 net.cpp:150] Setting up conv2_1_conv2_1/relu_0_split
I0316 22:50:06.041914 26470 net.cpp:157] Top shape: 1 256 119 119 (3625216)
I0316 22:50:06.041918 26470 net.cpp:157] Top shape: 1 256 119 119 (3625216)
I0316 22:50:06.041921 26470 net.cpp:165] Memory required for data: 332060672
I0316 22:50:06.041923 26470 layer_factory.hpp:77] Creating layer conv2_2_1x1_reduce
I0316 22:50:06.041932 26470 net.cpp:106] Creating Layer conv2_2_1x1_reduce
I0316 22:50:06.041935 26470 net.cpp:454] conv2_2_1x1_reduce <- conv2_1_conv2_1/relu_0_split_0
I0316 22:50:06.041941 26470 net.cpp:411] conv2_2_1x1_reduce -> conv2_2_1x1_reduce
I0316 22:50:06.042593 26470 net.cpp:150] Setting up conv2_2_1x1_reduce
I0316 22:50:06.042601 26470 net.cpp:157] Top shape: 1 64 119 119 (906304)
I0316 22:50:06.042604 26470 net.cpp:165] Memory required for data: 335685888
I0316 22:50:06.042610 26470 layer_factory.hpp:77] Creating layer conv2_2_1x1_reduce/bn
I0316 22:50:06.042621 26470 net.cpp:106] Creating Layer conv2_2_1x1_reduce/bn
I0316 22:50:06.042625 26470 net.cpp:454] conv2_2_1x1_reduce/bn <- conv2_2_1x1_reduce
I0316 22:50:06.042630 26470 net.cpp:397] conv2_2_1x1_reduce/bn -> conv2_2_1x1_reduce (in-place)
I0316 22:50:06.042824 26470 net.cpp:150] Setting up conv2_2_1x1_reduce/bn
I0316 22:50:06.042830 26470 net.cpp:157] Top shape: 1 64 119 119 (906304)
I0316 22:50:06.042834 26470 net.cpp:165] Memory required for data: 339311104
I0316 22:50:06.042840 26470 layer_factory.hpp:77] Creating layer conv2_2_1x1_reduce/relu
I0316 22:50:06.042847 26470 net.cpp:106] Creating Layer conv2_2_1x1_reduce/relu
I0316 22:50:06.042850 26470 net.cpp:454] conv2_2_1x1_reduce/relu <- conv2_2_1x1_reduce
I0316 22:50:06.042853 26470 net.cpp:397] conv2_2_1x1_reduce/relu -> conv2_2_1x1_reduce (in-place)
I0316 22:50:06.042857 26470 net.cpp:150] Setting up conv2_2_1x1_reduce/relu
I0316 22:50:06.042861 26470 net.cpp:157] Top shape: 1 64 119 119 (906304)
I0316 22:50:06.042863 26470 net.cpp:165] Memory required for data: 342936320
I0316 22:50:06.042865 26470 layer_factory.hpp:77] Creating layer conv2_2_3x3
I0316 22:50:06.042872 26470 net.cpp:106] Creating Layer conv2_2_3x3
I0316 22:50:06.042875 26470 net.cpp:454] conv2_2_3x3 <- conv2_2_1x1_reduce
I0316 22:50:06.042881 26470 net.cpp:411] conv2_2_3x3 -> conv2_2_3x3
I0316 22:50:06.044080 26470 net.cpp:150] Setting up conv2_2_3x3
I0316 22:50:06.044091 26470 net.cpp:157] Top shape: 1 64 119 119 (906304)
I0316 22:50:06.044095 26470 net.cpp:165] Memory required for data: 346561536
I0316 22:50:06.044100 26470 layer_factory.hpp:77] Creating layer conv2_2_3x3/bn
I0316 22:50:06.044108 26470 net.cpp:106] Creating Layer conv2_2_3x3/bn
I0316 22:50:06.044112 26470 net.cpp:454] conv2_2_3x3/bn <- conv2_2_3x3
I0316 22:50:06.044116 26470 net.cpp:397] conv2_2_3x3/bn -> conv2_2_3x3 (in-place)
I0316 22:50:06.044306 26470 net.cpp:150] Setting up conv2_2_3x3/bn
I0316 22:50:06.044312 26470 net.cpp:157] Top shape: 1 64 119 119 (906304)
I0316 22:50:06.044315 26470 net.cpp:165] Memory required for data: 350186752
I0316 22:50:06.044322 26470 layer_factory.hpp:77] Creating layer conv2_2_3x3/relu
I0316 22:50:06.044328 26470 net.cpp:106] Creating Layer conv2_2_3x3/relu
I0316 22:50:06.044332 26470 net.cpp:454] conv2_2_3x3/relu <- conv2_2_3x3
I0316 22:50:06.044337 26470 net.cpp:397] conv2_2_3x3/relu -> conv2_2_3x3 (in-place)
I0316 22:50:06.044342 26470 net.cpp:150] Setting up conv2_2_3x3/relu
I0316 22:50:06.044347 26470 net.cpp:157] Top shape: 1 64 119 119 (906304)
I0316 22:50:06.044349 26470 net.cpp:165] Memory required for data: 353811968
I0316 22:50:06.044353 26470 layer_factory.hpp:77] Creating layer conv2_2_1x1_increase
I0316 22:50:06.044360 26470 net.cpp:106] Creating Layer conv2_2_1x1_increase
I0316 22:50:06.044363 26470 net.cpp:454] conv2_2_1x1_increase <- conv2_2_3x3
I0316 22:50:06.044368 26470 net.cpp:411] conv2_2_1x1_increase -> conv2_2_1x1_increase
I0316 22:50:06.044981 26470 net.cpp:150] Setting up conv2_2_1x1_increase
I0316 22:50:06.044991 26470 net.cpp:157] Top shape: 1 256 119 119 (3625216)
I0316 22:50:06.044994 26470 net.cpp:165] Memory required for data: 368312832
I0316 22:50:06.045001 26470 layer_factory.hpp:77] Creating layer conv2_2_1x1_increase/bn
I0316 22:50:06.045009 26470 net.cpp:106] Creating Layer conv2_2_1x1_increase/bn
I0316 22:50:06.045013 26470 net.cpp:454] conv2_2_1x1_increase/bn <- conv2_2_1x1_increase
I0316 22:50:06.045018 26470 net.cpp:397] conv2_2_1x1_increase/bn -> conv2_2_1x1_increase (in-place)
I0316 22:50:06.045186 26470 net.cpp:150] Setting up conv2_2_1x1_increase/bn
I0316 22:50:06.045192 26470 net.cpp:157] Top shape: 1 256 119 119 (3625216)
I0316 22:50:06.045197 26470 net.cpp:165] Memory required for data: 382813696
I0316 22:50:06.045202 26470 layer_factory.hpp:77] Creating layer conv2_2
I0316 22:50:06.045212 26470 net.cpp:106] Creating Layer conv2_2
I0316 22:50:06.045215 26470 net.cpp:454] conv2_2 <- conv2_1_conv2_1/relu_0_split_1
I0316 22:50:06.045220 26470 net.cpp:454] conv2_2 <- conv2_2_1x1_increase
I0316 22:50:06.045224 26470 net.cpp:411] conv2_2 -> conv2_2
I0316 22:50:06.045243 26470 net.cpp:150] Setting up conv2_2
I0316 22:50:06.045246 26470 net.cpp:157] Top shape: 1 256 119 119 (3625216)
I0316 22:50:06.045250 26470 net.cpp:165] Memory required for data: 397314560
I0316 22:50:06.045253 26470 layer_factory.hpp:77] Creating layer conv2_2/relu
I0316 22:50:06.045258 26470 net.cpp:106] Creating Layer conv2_2/relu
I0316 22:50:06.045260 26470 net.cpp:454] conv2_2/relu <- conv2_2
I0316 22:50:06.045265 26470 net.cpp:397] conv2_2/relu -> conv2_2 (in-place)
I0316 22:50:06.045270 26470 net.cpp:150] Setting up conv2_2/relu
I0316 22:50:06.045274 26470 net.cpp:157] Top shape: 1 256 119 119 (3625216)
I0316 22:50:06.045279 26470 net.cpp:165] Memory required for data: 411815424
I0316 22:50:06.045280 26470 layer_factory.hpp:77] Creating layer conv2_2_conv2_2/relu_0_split
I0316 22:50:06.045285 26470 net.cpp:106] Creating Layer conv2_2_conv2_2/relu_0_split
I0316 22:50:06.045289 26470 net.cpp:454] conv2_2_conv2_2/relu_0_split <- conv2_2
I0316 22:50:06.045292 26470 net.cpp:411] conv2_2_conv2_2/relu_0_split -> conv2_2_conv2_2/relu_0_split_0
I0316 22:50:06.045297 26470 net.cpp:411] conv2_2_conv2_2/relu_0_split -> conv2_2_conv2_2/relu_0_split_1
I0316 22:50:06.045328 26470 net.cpp:150] Setting up conv2_2_conv2_2/relu_0_split
I0316 22:50:06.045334 26470 net.cpp:157] Top shape: 1 256 119 119 (3625216)
I0316 22:50:06.045338 26470 net.cpp:157] Top shape: 1 256 119 119 (3625216)
I0316 22:50:06.045341 26470 net.cpp:165] Memory required for data: 440817152
I0316 22:50:06.045344 26470 layer_factory.hpp:77] Creating layer conv2_3_1x1_reduce
I0316 22:50:06.045354 26470 net.cpp:106] Creating Layer conv2_3_1x1_reduce
I0316 22:50:06.045358 26470 net.cpp:454] conv2_3_1x1_reduce <- conv2_2_conv2_2/relu_0_split_0
I0316 22:50:06.045364 26470 net.cpp:411] conv2_3_1x1_reduce -> conv2_3_1x1_reduce
I0316 22:50:06.045953 26470 net.cpp:150] Setting up conv2_3_1x1_reduce
I0316 22:50:06.045960 26470 net.cpp:157] Top shape: 1 64 119 119 (906304)
I0316 22:50:06.045964 26470 net.cpp:165] Memory required for data: 444442368
I0316 22:50:06.045969 26470 layer_factory.hpp:77] Creating layer conv2_3_1x1_reduce/bn
I0316 22:50:06.045974 26470 net.cpp:106] Creating Layer conv2_3_1x1_reduce/bn
I0316 22:50:06.045976 26470 net.cpp:454] conv2_3_1x1_reduce/bn <- conv2_3_1x1_reduce
I0316 22:50:06.045982 26470 net.cpp:397] conv2_3_1x1_reduce/bn -> conv2_3_1x1_reduce (in-place)
I0316 22:50:06.046159 26470 net.cpp:150] Setting up conv2_3_1x1_reduce/bn
I0316 22:50:06.046166 26470 net.cpp:157] Top shape: 1 64 119 119 (906304)
I0316 22:50:06.046169 26470 net.cpp:165] Memory required for data: 448067584
I0316 22:50:06.046176 26470 layer_factory.hpp:77] Creating layer conv2_3_1x1_reduce/relu
I0316 22:50:06.046181 26470 net.cpp:106] Creating Layer conv2_3_1x1_reduce/relu
I0316 22:50:06.046185 26470 net.cpp:454] conv2_3_1x1_reduce/relu <- conv2_3_1x1_reduce
I0316 22:50:06.046188 26470 net.cpp:397] conv2_3_1x1_reduce/relu -> conv2_3_1x1_reduce (in-place)
I0316 22:50:06.046193 26470 net.cpp:150] Setting up conv2_3_1x1_reduce/relu
I0316 22:50:06.046197 26470 net.cpp:157] Top shape: 1 64 119 119 (906304)
I0316 22:50:06.046200 26470 net.cpp:165] Memory required for data: 451692800
I0316 22:50:06.046203 26470 layer_factory.hpp:77] Creating layer conv2_3_3x3
I0316 22:50:06.046211 26470 net.cpp:106] Creating Layer conv2_3_3x3
I0316 22:50:06.046214 26470 net.cpp:454] conv2_3_3x3 <- conv2_3_1x1_reduce
I0316 22:50:06.046219 26470 net.cpp:411] conv2_3_3x3 -> conv2_3_3x3
I0316 22:50:06.047390 26470 net.cpp:150] Setting up conv2_3_3x3
I0316 22:50:06.047399 26470 net.cpp:157] Top shape: 1 64 119 119 (906304)
I0316 22:50:06.047401 26470 net.cpp:165] Memory required for data: 455318016
I0316 22:50:06.047405 26470 layer_factory.hpp:77] Creating layer conv2_3_3x3/bn
I0316 22:50:06.047411 26470 net.cpp:106] Creating Layer conv2_3_3x3/bn
I0316 22:50:06.047415 26470 net.cpp:454] conv2_3_3x3/bn <- conv2_3_3x3
I0316 22:50:06.047420 26470 net.cpp:397] conv2_3_3x3/bn -> conv2_3_3x3 (in-place)
I0316 22:50:06.047602 26470 net.cpp:150] Setting up conv2_3_3x3/bn
I0316 22:50:06.047610 26470 net.cpp:157] Top shape: 1 64 119 119 (906304)
I0316 22:50:06.047613 26470 net.cpp:165] Memory required for data: 458943232
I0316 22:50:06.047619 26470 layer_factory.hpp:77] Creating layer conv2_3_3x3/relu
I0316 22:50:06.047624 26470 net.cpp:106] Creating Layer conv2_3_3x3/relu
I0316 22:50:06.047627 26470 net.cpp:454] conv2_3_3x3/relu <- conv2_3_3x3
I0316 22:50:06.047632 26470 net.cpp:397] conv2_3_3x3/relu -> conv2_3_3x3 (in-place)
I0316 22:50:06.047638 26470 net.cpp:150] Setting up conv2_3_3x3/relu
I0316 22:50:06.047644 26470 net.cpp:157] Top shape: 1 64 119 119 (906304)
I0316 22:50:06.047648 26470 net.cpp:165] Memory required for data: 462568448
I0316 22:50:06.047652 26470 layer_factory.hpp:77] Creating layer conv2_3_1x1_increase
I0316 22:50:06.047657 26470 net.cpp:106] Creating Layer conv2_3_1x1_increase
I0316 22:50:06.047660 26470 net.cpp:454] conv2_3_1x1_increase <- conv2_3_3x3
I0316 22:50:06.047667 26470 net.cpp:411] conv2_3_1x1_increase -> conv2_3_1x1_increase
I0316 22:50:06.048162 26470 net.cpp:150] Setting up conv2_3_1x1_increase
I0316 22:50:06.048171 26470 net.cpp:157] Top shape: 1 256 119 119 (3625216)
I0316 22:50:06.048173 26470 net.cpp:165] Memory required for data: 477069312
I0316 22:50:06.048177 26470 layer_factory.hpp:77] Creating layer conv2_3_1x1_increase/bn
I0316 22:50:06.048180 26470 net.cpp:106] Creating Layer conv2_3_1x1_increase/bn
I0316 22:50:06.048182 26470 net.cpp:454] conv2_3_1x1_increase/bn <- conv2_3_1x1_increase
I0316 22:50:06.048185 26470 net.cpp:397] conv2_3_1x1_increase/bn -> conv2_3_1x1_increase (in-place)
I0316 22:50:06.048295 26470 net.cpp:150] Setting up conv2_3_1x1_increase/bn
I0316 22:50:06.048302 26470 net.cpp:157] Top shape: 1 256 119 119 (3625216)
I0316 22:50:06.048305 26470 net.cpp:165] Memory required for data: 491570176
I0316 22:50:06.048327 26470 layer_factory.hpp:77] Creating layer conv2_3
I0316 22:50:06.048333 26470 net.cpp:106] Creating Layer conv2_3
I0316 22:50:06.048336 26470 net.cpp:454] conv2_3 <- conv2_2_conv2_2/relu_0_split_1
I0316 22:50:06.048338 26470 net.cpp:454] conv2_3 <- conv2_3_1x1_increase
I0316 22:50:06.048341 26470 net.cpp:411] conv2_3 -> conv2_3
I0316 22:50:06.048354 26470 net.cpp:150] Setting up conv2_3
I0316 22:50:06.048357 26470 net.cpp:157] Top shape: 1 256 119 119 (3625216)
I0316 22:50:06.048359 26470 net.cpp:165] Memory required for data: 506071040
I0316 22:50:06.048360 26470 layer_factory.hpp:77] Creating layer conv2_3/relu
I0316 22:50:06.048363 26470 net.cpp:106] Creating Layer conv2_3/relu
I0316 22:50:06.048364 26470 net.cpp:454] conv2_3/relu <- conv2_3
I0316 22:50:06.048367 26470 net.cpp:397] conv2_3/relu -> conv2_3 (in-place)
I0316 22:50:06.048370 26470 net.cpp:150] Setting up conv2_3/relu
I0316 22:50:06.048372 26470 net.cpp:157] Top shape: 1 256 119 119 (3625216)
I0316 22:50:06.048374 26470 net.cpp:165] Memory required for data: 520571904
I0316 22:50:06.048375 26470 layer_factory.hpp:77] Creating layer conv2_3_conv2_3/relu_0_split
I0316 22:50:06.048378 26470 net.cpp:106] Creating Layer conv2_3_conv2_3/relu_0_split
I0316 22:50:06.048379 26470 net.cpp:454] conv2_3_conv2_3/relu_0_split <- conv2_3
I0316 22:50:06.048382 26470 net.cpp:411] conv2_3_conv2_3/relu_0_split -> conv2_3_conv2_3/relu_0_split_0
I0316 22:50:06.048385 26470 net.cpp:411] conv2_3_conv2_3/relu_0_split -> conv2_3_conv2_3/relu_0_split_1
I0316 22:50:06.048403 26470 net.cpp:150] Setting up conv2_3_conv2_3/relu_0_split
I0316 22:50:06.048406 26470 net.cpp:157] Top shape: 1 256 119 119 (3625216)
I0316 22:50:06.048408 26470 net.cpp:157] Top shape: 1 256 119 119 (3625216)
I0316 22:50:06.048410 26470 net.cpp:165] Memory required for data: 549573632
I0316 22:50:06.048411 26470 layer_factory.hpp:77] Creating layer conv3_1_1x1_reduce
I0316 22:50:06.048416 26470 net.cpp:106] Creating Layer conv3_1_1x1_reduce
I0316 22:50:06.048419 26470 net.cpp:454] conv3_1_1x1_reduce <- conv2_3_conv2_3/relu_0_split_0
I0316 22:50:06.048424 26470 net.cpp:411] conv3_1_1x1_reduce -> conv3_1_1x1_reduce
I0316 22:50:06.049268 26470 net.cpp:150] Setting up conv3_1_1x1_reduce
I0316 22:50:06.049273 26470 net.cpp:157] Top shape: 1 128 60 60 (460800)
I0316 22:50:06.049274 26470 net.cpp:165] Memory required for data: 551416832
I0316 22:50:06.049276 26470 layer_factory.hpp:77] Creating layer conv3_1_1x1_reduce/bn
I0316 22:50:06.049280 26470 net.cpp:106] Creating Layer conv3_1_1x1_reduce/bn
I0316 22:50:06.049281 26470 net.cpp:454] conv3_1_1x1_reduce/bn <- conv3_1_1x1_reduce
I0316 22:50:06.049285 26470 net.cpp:397] conv3_1_1x1_reduce/bn -> conv3_1_1x1_reduce (in-place)
I0316 22:50:06.049420 26470 net.cpp:150] Setting up conv3_1_1x1_reduce/bn
I0316 22:50:06.049424 26470 net.cpp:157] Top shape: 1 128 60 60 (460800)
I0316 22:50:06.049427 26470 net.cpp:165] Memory required for data: 553260032
I0316 22:50:06.049430 26470 layer_factory.hpp:77] Creating layer conv3_1_1x1_reduce/relu
I0316 22:50:06.049433 26470 net.cpp:106] Creating Layer conv3_1_1x1_reduce/relu
I0316 22:50:06.049434 26470 net.cpp:454] conv3_1_1x1_reduce/relu <- conv3_1_1x1_reduce
I0316 22:50:06.049438 26470 net.cpp:397] conv3_1_1x1_reduce/relu -> conv3_1_1x1_reduce (in-place)
I0316 22:50:06.049440 26470 net.cpp:150] Setting up conv3_1_1x1_reduce/relu
I0316 22:50:06.049443 26470 net.cpp:157] Top shape: 1 128 60 60 (460800)
I0316 22:50:06.049444 26470 net.cpp:165] Memory required for data: 555103232
I0316 22:50:06.049446 26470 layer_factory.hpp:77] Creating layer conv3_1_3x3
I0316 22:50:06.049450 26470 net.cpp:106] Creating Layer conv3_1_3x3
I0316 22:50:06.049453 26470 net.cpp:454] conv3_1_3x3 <- conv3_1_1x1_reduce
I0316 22:50:06.049454 26470 net.cpp:411] conv3_1_3x3 -> conv3_1_3x3
I0316 22:50:06.052837 26470 net.cpp:150] Setting up conv3_1_3x3
I0316 22:50:06.052842 26470 net.cpp:157] Top shape: 1 128 60 60 (460800)
I0316 22:50:06.052845 26470 net.cpp:165] Memory required for data: 556946432
I0316 22:50:06.052850 26470 layer_factory.hpp:77] Creating layer conv3_1_3x3/bn
I0316 22:50:06.052853 26470 net.cpp:106] Creating Layer conv3_1_3x3/bn
I0316 22:50:06.052855 26470 net.cpp:454] conv3_1_3x3/bn <- conv3_1_3x3
I0316 22:50:06.052858 26470 net.cpp:397] conv3_1_3x3/bn -> conv3_1_3x3 (in-place)
I0316 22:50:06.053004 26470 net.cpp:150] Setting up conv3_1_3x3/bn
I0316 22:50:06.053009 26470 net.cpp:157] Top shape: 1 128 60 60 (460800)
I0316 22:50:06.053010 26470 net.cpp:165] Memory required for data: 558789632
I0316 22:50:06.053015 26470 layer_factory.hpp:77] Creating layer conv3_1_3x3/relu
I0316 22:50:06.053020 26470 net.cpp:106] Creating Layer conv3_1_3x3/relu
I0316 22:50:06.053021 26470 net.cpp:454] conv3_1_3x3/relu <- conv3_1_3x3
I0316 22:50:06.053025 26470 net.cpp:397] conv3_1_3x3/relu -> conv3_1_3x3 (in-place)
I0316 22:50:06.053026 26470 net.cpp:150] Setting up conv3_1_3x3/relu
I0316 22:50:06.053030 26470 net.cpp:157] Top shape: 1 128 60 60 (460800)
I0316 22:50:06.053030 26470 net.cpp:165] Memory required for data: 560632832
I0316 22:50:06.053032 26470 layer_factory.hpp:77] Creating layer conv3_1_1x1_increase
I0316 22:50:06.053036 26470 net.cpp:106] Creating Layer conv3_1_1x1_increase
I0316 22:50:06.053038 26470 net.cpp:454] conv3_1_1x1_increase <- conv3_1_3x3
I0316 22:50:06.053041 26470 net.cpp:411] conv3_1_1x1_increase -> conv3_1_1x1_increase
I0316 22:50:06.054790 26470 net.cpp:150] Setting up conv3_1_1x1_increase
I0316 22:50:06.054801 26470 net.cpp:157] Top shape: 1 512 60 60 (1843200)
I0316 22:50:06.054803 26470 net.cpp:165] Memory required for data: 568005632
I0316 22:50:06.054808 26470 layer_factory.hpp:77] Creating layer conv3_1_1x1_increase/bn
I0316 22:50:06.054817 26470 net.cpp:106] Creating Layer conv3_1_1x1_increase/bn
I0316 22:50:06.054821 26470 net.cpp:454] conv3_1_1x1_increase/bn <- conv3_1_1x1_increase
I0316 22:50:06.054827 26470 net.cpp:397] conv3_1_1x1_increase/bn -> conv3_1_1x1_increase (in-place)
I0316 22:50:06.056058 26470 net.cpp:150] Setting up conv3_1_1x1_increase/bn
I0316 22:50:06.056078 26470 net.cpp:157] Top shape: 1 512 60 60 (1843200)
I0316 22:50:06.056080 26470 net.cpp:165] Memory required for data: 575378432
I0316 22:50:06.056090 26470 layer_factory.hpp:77] Creating layer conv3_1_1x1_proj
I0316 22:50:06.056110 26470 net.cpp:106] Creating Layer conv3_1_1x1_proj
I0316 22:50:06.056116 26470 net.cpp:454] conv3_1_1x1_proj <- conv2_3_conv2_3/relu_0_split_1
I0316 22:50:06.056124 26470 net.cpp:411] conv3_1_1x1_proj -> conv3_1_1x1_proj
I0316 22:50:06.059304 26470 net.cpp:150] Setting up conv3_1_1x1_proj
I0316 22:50:06.059312 26470 net.cpp:157] Top shape: 1 512 60 60 (1843200)
I0316 22:50:06.059314 26470 net.cpp:165] Memory required for data: 582751232
I0316 22:50:06.059317 26470 layer_factory.hpp:77] Creating layer conv3_1_1x1_proj/bn
I0316 22:50:06.059322 26470 net.cpp:106] Creating Layer conv3_1_1x1_proj/bn
I0316 22:50:06.059324 26470 net.cpp:454] conv3_1_1x1_proj/bn <- conv3_1_1x1_proj
I0316 22:50:06.059329 26470 net.cpp:397] conv3_1_1x1_proj/bn -> conv3_1_1x1_proj (in-place)
I0316 22:50:06.059471 26470 net.cpp:150] Setting up conv3_1_1x1_proj/bn
I0316 22:50:06.059475 26470 net.cpp:157] Top shape: 1 512 60 60 (1843200)
I0316 22:50:06.059478 26470 net.cpp:165] Memory required for data: 590124032
I0316 22:50:06.059481 26470 layer_factory.hpp:77] Creating layer conv3_1
I0316 22:50:06.059487 26470 net.cpp:106] Creating Layer conv3_1
I0316 22:50:06.059489 26470 net.cpp:454] conv3_1 <- conv3_1_1x1_proj
I0316 22:50:06.059491 26470 net.cpp:454] conv3_1 <- conv3_1_1x1_increase
I0316 22:50:06.059494 26470 net.cpp:411] conv3_1 -> conv3_1
I0316 22:50:06.059505 26470 net.cpp:150] Setting up conv3_1
I0316 22:50:06.059509 26470 net.cpp:157] Top shape: 1 512 60 60 (1843200)
I0316 22:50:06.059509 26470 net.cpp:165] Memory required for data: 597496832
I0316 22:50:06.059511 26470 layer_factory.hpp:77] Creating layer conv3_1/relu
I0316 22:50:06.059515 26470 net.cpp:106] Creating Layer conv3_1/relu
I0316 22:50:06.059518 26470 net.cpp:454] conv3_1/relu <- conv3_1
I0316 22:50:06.059521 26470 net.cpp:397] conv3_1/relu -> conv3_1 (in-place)
I0316 22:50:06.059525 26470 net.cpp:150] Setting up conv3_1/relu
I0316 22:50:06.059527 26470 net.cpp:157] Top shape: 1 512 60 60 (1843200)
I0316 22:50:06.059530 26470 net.cpp:165] Memory required for data: 604869632
I0316 22:50:06.059531 26470 layer_factory.hpp:77] Creating layer conv3_1_conv3_1/relu_0_split
I0316 22:50:06.059535 26470 net.cpp:106] Creating Layer conv3_1_conv3_1/relu_0_split
I0316 22:50:06.059536 26470 net.cpp:454] conv3_1_conv3_1/relu_0_split <- conv3_1
I0316 22:50:06.059543 26470 net.cpp:411] conv3_1_conv3_1/relu_0_split -> conv3_1_conv3_1/relu_0_split_0
I0316 22:50:06.059550 26470 net.cpp:411] conv3_1_conv3_1/relu_0_split -> conv3_1_conv3_1/relu_0_split_1
I0316 22:50:06.059584 26470 net.cpp:150] Setting up conv3_1_conv3_1/relu_0_split
I0316 22:50:06.059587 26470 net.cpp:157] Top shape: 1 512 60 60 (1843200)
I0316 22:50:06.059590 26470 net.cpp:157] Top shape: 1 512 60 60 (1843200)
I0316 22:50:06.059592 26470 net.cpp:165] Memory required for data: 619615232
I0316 22:50:06.059593 26470 layer_factory.hpp:77] Creating layer conv3_2_1x1_reduce
I0316 22:50:06.059598 26470 net.cpp:106] Creating Layer conv3_2_1x1_reduce
I0316 22:50:06.059600 26470 net.cpp:454] conv3_2_1x1_reduce <- conv3_1_conv3_1/relu_0_split_0
I0316 22:50:06.059603 26470 net.cpp:411] conv3_2_1x1_reduce -> conv3_2_1x1_reduce
I0316 22:50:06.061163 26470 net.cpp:150] Setting up conv3_2_1x1_reduce
I0316 22:50:06.061167 26470 net.cpp:157] Top shape: 1 128 60 60 (460800)
I0316 22:50:06.061168 26470 net.cpp:165] Memory required for data: 621458432
I0316 22:50:06.061173 26470 layer_factory.hpp:77] Creating layer conv3_2_1x1_reduce/bn
I0316 22:50:06.061180 26470 net.cpp:106] Creating Layer conv3_2_1x1_reduce/bn
I0316 22:50:06.061184 26470 net.cpp:454] conv3_2_1x1_reduce/bn <- conv3_2_1x1_reduce
I0316 22:50:06.061190 26470 net.cpp:397] conv3_2_1x1_reduce/bn -> conv3_2_1x1_reduce (in-place)
I0316 22:50:06.061305 26470 net.cpp:150] Setting up conv3_2_1x1_reduce/bn
I0316 22:50:06.061308 26470 net.cpp:157] Top shape: 1 128 60 60 (460800)
I0316 22:50:06.061311 26470 net.cpp:165] Memory required for data: 623301632
I0316 22:50:06.061314 26470 layer_factory.hpp:77] Creating layer conv3_2_1x1_reduce/relu
I0316 22:50:06.061317 26470 net.cpp:106] Creating Layer conv3_2_1x1_reduce/relu
I0316 22:50:06.061318 26470 net.cpp:454] conv3_2_1x1_reduce/relu <- conv3_2_1x1_reduce
I0316 22:50:06.061322 26470 net.cpp:397] conv3_2_1x1_reduce/relu -> conv3_2_1x1_reduce (in-place)
I0316 22:50:06.061327 26470 net.cpp:150] Setting up conv3_2_1x1_reduce/relu
I0316 22:50:06.061332 26470 net.cpp:157] Top shape: 1 128 60 60 (460800)
I0316 22:50:06.061336 26470 net.cpp:165] Memory required for data: 625144832
I0316 22:50:06.061341 26470 layer_factory.hpp:77] Creating layer conv3_2_3x3
I0316 22:50:06.061352 26470 net.cpp:106] Creating Layer conv3_2_3x3
I0316 22:50:06.061354 26470 net.cpp:454] conv3_2_3x3 <- conv3_2_1x1_reduce
I0316 22:50:06.061357 26470 net.cpp:411] conv3_2_3x3 -> conv3_2_3x3
I0316 22:50:06.064733 26470 net.cpp:150] Setting up conv3_2_3x3
I0316 22:50:06.064736 26470 net.cpp:157] Top shape: 1 128 60 60 (460800)
I0316 22:50:06.064738 26470 net.cpp:165] Memory required for data: 626988032
I0316 22:50:06.064741 26470 layer_factory.hpp:77] Creating layer conv3_2_3x3/bn
I0316 22:50:06.064746 26470 net.cpp:106] Creating Layer conv3_2_3x3/bn
I0316 22:50:06.064750 26470 net.cpp:454] conv3_2_3x3/bn <- conv3_2_3x3
I0316 22:50:06.064759 26470 net.cpp:397] conv3_2_3x3/bn -> conv3_2_3x3 (in-place)
I0316 22:50:06.064877 26470 net.cpp:150] Setting up conv3_2_3x3/bn
I0316 22:50:06.064880 26470 net.cpp:157] Top shape: 1 128 60 60 (460800)
I0316 22:50:06.064882 26470 net.cpp:165] Memory required for data: 628831232
I0316 22:50:06.064887 26470 layer_factory.hpp:77] Creating layer conv3_2_3x3/relu
I0316 22:50:06.064898 26470 net.cpp:106] Creating Layer conv3_2_3x3/relu
I0316 22:50:06.064903 26470 net.cpp:454] conv3_2_3x3/relu <- conv3_2_3x3
I0316 22:50:06.064908 26470 net.cpp:397] conv3_2_3x3/relu -> conv3_2_3x3 (in-place)
I0316 22:50:06.064913 26470 net.cpp:150] Setting up conv3_2_3x3/relu
I0316 22:50:06.064918 26470 net.cpp:157] Top shape: 1 128 60 60 (460800)
I0316 22:50:06.064921 26470 net.cpp:165] Memory required for data: 630674432
I0316 22:50:06.064924 26470 layer_factory.hpp:77] Creating layer conv3_2_1x1_increase
I0316 22:50:06.064927 26470 net.cpp:106] Creating Layer conv3_2_1x1_increase
I0316 22:50:06.064929 26470 net.cpp:454] conv3_2_1x1_increase <- conv3_2_3x3
I0316 22:50:06.064934 26470 net.cpp:411] conv3_2_1x1_increase -> conv3_2_1x1_increase
I0316 22:50:06.067301 26470 net.cpp:150] Setting up conv3_2_1x1_increase
I0316 22:50:06.067312 26470 net.cpp:157] Top shape: 1 512 60 60 (1843200)
I0316 22:50:06.067314 26470 net.cpp:165] Memory required for data: 638047232
I0316 22:50:06.067319 26470 layer_factory.hpp:77] Creating layer conv3_2_1x1_increase/bn
I0316 22:50:06.067327 26470 net.cpp:106] Creating Layer conv3_2_1x1_increase/bn
I0316 22:50:06.067329 26470 net.cpp:454] conv3_2_1x1_increase/bn <- conv3_2_1x1_increase
I0316 22:50:06.067332 26470 net.cpp:397] conv3_2_1x1_increase/bn -> conv3_2_1x1_increase (in-place)
I0316 22:50:06.067476 26470 net.cpp:150] Setting up conv3_2_1x1_increase/bn
I0316 22:50:06.067479 26470 net.cpp:157] Top shape: 1 512 60 60 (1843200)
I0316 22:50:06.067481 26470 net.cpp:165] Memory required for data: 645420032
I0316 22:50:06.067486 26470 layer_factory.hpp:77] Creating layer conv3_2
I0316 22:50:06.067489 26470 net.cpp:106] Creating Layer conv3_2
I0316 22:50:06.067490 26470 net.cpp:454] conv3_2 <- conv3_1_conv3_1/relu_0_split_1
I0316 22:50:06.067493 26470 net.cpp:454] conv3_2 <- conv3_2_1x1_increase
I0316 22:50:06.067495 26470 net.cpp:411] conv3_2 -> conv3_2
I0316 22:50:06.067508 26470 net.cpp:150] Setting up conv3_2
I0316 22:50:06.067510 26470 net.cpp:157] Top shape: 1 512 60 60 (1843200)
I0316 22:50:06.067512 26470 net.cpp:165] Memory required for data: 652792832
I0316 22:50:06.067513 26470 layer_factory.hpp:77] Creating layer conv3_2/relu
I0316 22:50:06.067518 26470 net.cpp:106] Creating Layer conv3_2/relu
I0316 22:50:06.067519 26470 net.cpp:454] conv3_2/relu <- conv3_2
I0316 22:50:06.067522 26470 net.cpp:397] conv3_2/relu -> conv3_2 (in-place)
I0316 22:50:06.067524 26470 net.cpp:150] Setting up conv3_2/relu
I0316 22:50:06.067526 26470 net.cpp:157] Top shape: 1 512 60 60 (1843200)
I0316 22:50:06.067528 26470 net.cpp:165] Memory required for data: 660165632
I0316 22:50:06.067529 26470 layer_factory.hpp:77] Creating layer conv3_2_conv3_2/relu_0_split
I0316 22:50:06.067533 26470 net.cpp:106] Creating Layer conv3_2_conv3_2/relu_0_split
I0316 22:50:06.067534 26470 net.cpp:454] conv3_2_conv3_2/relu_0_split <- conv3_2
I0316 22:50:06.067538 26470 net.cpp:411] conv3_2_conv3_2/relu_0_split -> conv3_2_conv3_2/relu_0_split_0
I0316 22:50:06.067539 26470 net.cpp:411] conv3_2_conv3_2/relu_0_split -> conv3_2_conv3_2/relu_0_split_1
I0316 22:50:06.067560 26470 net.cpp:150] Setting up conv3_2_conv3_2/relu_0_split
I0316 22:50:06.067565 26470 net.cpp:157] Top shape: 1 512 60 60 (1843200)
I0316 22:50:06.067569 26470 net.cpp:157] Top shape: 1 512 60 60 (1843200)
I0316 22:50:06.067574 26470 net.cpp:165] Memory required for data: 674911232
I0316 22:50:06.067576 26470 layer_factory.hpp:77] Creating layer conv3_3_1x1_reduce
I0316 22:50:06.067587 26470 net.cpp:106] Creating Layer conv3_3_1x1_reduce
I0316 22:50:06.067591 26470 net.cpp:454] conv3_3_1x1_reduce <- conv3_2_conv3_2/relu_0_split_0
I0316 22:50:06.067595 26470 net.cpp:411] conv3_3_1x1_reduce -> conv3_3_1x1_reduce
I0316 22:50:06.069157 26470 net.cpp:150] Setting up conv3_3_1x1_reduce
I0316 22:50:06.069161 26470 net.cpp:157] Top shape: 1 128 60 60 (460800)
I0316 22:50:06.069162 26470 net.cpp:165] Memory required for data: 676754432
I0316 22:50:06.069165 26470 layer_factory.hpp:77] Creating layer conv3_3_1x1_reduce/bn
I0316 22:50:06.069169 26470 net.cpp:106] Creating Layer conv3_3_1x1_reduce/bn
I0316 22:50:06.069170 26470 net.cpp:454] conv3_3_1x1_reduce/bn <- conv3_3_1x1_reduce
I0316 22:50:06.069175 26470 net.cpp:397] conv3_3_1x1_reduce/bn -> conv3_3_1x1_reduce (in-place)
I0316 22:50:06.069299 26470 net.cpp:150] Setting up conv3_3_1x1_reduce/bn
I0316 22:50:06.069303 26470 net.cpp:157] Top shape: 1 128 60 60 (460800)
I0316 22:50:06.069304 26470 net.cpp:165] Memory required for data: 678597632
I0316 22:50:06.069308 26470 layer_factory.hpp:77] Creating layer conv3_3_1x1_reduce/relu
I0316 22:50:06.069311 26470 net.cpp:106] Creating Layer conv3_3_1x1_reduce/relu
I0316 22:50:06.069314 26470 net.cpp:454] conv3_3_1x1_reduce/relu <- conv3_3_1x1_reduce
I0316 22:50:06.069315 26470 net.cpp:397] conv3_3_1x1_reduce/relu -> conv3_3_1x1_reduce (in-place)
I0316 22:50:06.069319 26470 net.cpp:150] Setting up conv3_3_1x1_reduce/relu
I0316 22:50:06.069324 26470 net.cpp:157] Top shape: 1 128 60 60 (460800)
I0316 22:50:06.069326 26470 net.cpp:165] Memory required for data: 680440832
I0316 22:50:06.069330 26470 layer_factory.hpp:77] Creating layer conv3_3_3x3
I0316 22:50:06.069340 26470 net.cpp:106] Creating Layer conv3_3_3x3
I0316 22:50:06.069344 26470 net.cpp:454] conv3_3_3x3 <- conv3_3_1x1_reduce
I0316 22:50:06.069351 26470 net.cpp:411] conv3_3_3x3 -> conv3_3_3x3
I0316 22:50:06.073411 26470 net.cpp:150] Setting up conv3_3_3x3
I0316 22:50:06.073423 26470 net.cpp:157] Top shape: 1 128 60 60 (460800)
I0316 22:50:06.073426 26470 net.cpp:165] Memory required for data: 682284032
I0316 22:50:06.073431 26470 layer_factory.hpp:77] Creating layer conv3_3_3x3/bn
I0316 22:50:06.073438 26470 net.cpp:106] Creating Layer conv3_3_3x3/bn
I0316 22:50:06.073441 26470 net.cpp:454] conv3_3_3x3/bn <- conv3_3_3x3
I0316 22:50:06.073444 26470 net.cpp:397] conv3_3_3x3/bn -> conv3_3_3x3 (in-place)
I0316 22:50:06.073580 26470 net.cpp:150] Setting up conv3_3_3x3/bn
I0316 22:50:06.073585 26470 net.cpp:157] Top shape: 1 128 60 60 (460800)
I0316 22:50:06.073587 26470 net.cpp:165] Memory required for data: 684127232
I0316 22:50:06.073591 26470 layer_factory.hpp:77] Creating layer conv3_3_3x3/relu
I0316 22:50:06.073595 26470 net.cpp:106] Creating Layer conv3_3_3x3/relu
I0316 22:50:06.073596 26470 net.cpp:454] conv3_3_3x3/relu <- conv3_3_3x3
I0316 22:50:06.073598 26470 net.cpp:397] conv3_3_3x3/relu -> conv3_3_3x3 (in-place)
I0316 22:50:06.073601 26470 net.cpp:150] Setting up conv3_3_3x3/relu
I0316 22:50:06.073603 26470 net.cpp:157] Top shape: 1 128 60 60 (460800)
I0316 22:50:06.073606 26470 net.cpp:165] Memory required for data: 685970432
I0316 22:50:06.073607 26470 layer_factory.hpp:77] Creating layer conv3_3_1x1_increase
I0316 22:50:06.073612 26470 net.cpp:106] Creating Layer conv3_3_1x1_increase
I0316 22:50:06.073614 26470 net.cpp:454] conv3_3_1x1_increase <- conv3_3_3x3
I0316 22:50:06.073618 26470 net.cpp:411] conv3_3_1x1_increase -> conv3_3_1x1_increase
I0316 22:50:06.075207 26470 net.cpp:150] Setting up conv3_3_1x1_increase
I0316 22:50:06.075214 26470 net.cpp:157] Top shape: 1 512 60 60 (1843200)
I0316 22:50:06.075217 26470 net.cpp:165] Memory required for data: 693343232
I0316 22:50:06.075220 26470 layer_factory.hpp:77] Creating layer conv3_3_1x1_increase/bn
I0316 22:50:06.075225 26470 net.cpp:106] Creating Layer conv3_3_1x1_increase/bn
I0316 22:50:06.075228 26470 net.cpp:454] conv3_3_1x1_increase/bn <- conv3_3_1x1_increase
I0316 22:50:06.075233 26470 net.cpp:397] conv3_3_1x1_increase/bn -> conv3_3_1x1_increase (in-place)
I0316 22:50:06.075379 26470 net.cpp:150] Setting up conv3_3_1x1_increase/bn
I0316 22:50:06.075384 26470 net.cpp:157] Top shape: 1 512 60 60 (1843200)
I0316 22:50:06.075387 26470 net.cpp:165] Memory required for data: 700716032
I0316 22:50:06.075392 26470 layer_factory.hpp:77] Creating layer conv3_3
I0316 22:50:06.075397 26470 net.cpp:106] Creating Layer conv3_3
I0316 22:50:06.075399 26470 net.cpp:454] conv3_3 <- conv3_2_conv3_2/relu_0_split_1
I0316 22:50:06.075402 26470 net.cpp:454] conv3_3 <- conv3_3_1x1_increase
I0316 22:50:06.075408 26470 net.cpp:411] conv3_3 -> conv3_3
I0316 22:50:06.075425 26470 net.cpp:150] Setting up conv3_3
I0316 22:50:06.075429 26470 net.cpp:157] Top shape: 1 512 60 60 (1843200)
I0316 22:50:06.075431 26470 net.cpp:165] Memory required for data: 708088832
I0316 22:50:06.075433 26470 layer_factory.hpp:77] Creating layer conv3_3/relu
I0316 22:50:06.075438 26470 net.cpp:106] Creating Layer conv3_3/relu
I0316 22:50:06.075439 26470 net.cpp:454] conv3_3/relu <- conv3_3
I0316 22:50:06.075443 26470 net.cpp:397] conv3_3/relu -> conv3_3 (in-place)
I0316 22:50:06.075446 26470 net.cpp:150] Setting up conv3_3/relu
I0316 22:50:06.075449 26470 net.cpp:157] Top shape: 1 512 60 60 (1843200)
I0316 22:50:06.075451 26470 net.cpp:165] Memory required for data: 715461632
I0316 22:50:06.075453 26470 layer_factory.hpp:77] Creating layer conv3_3_conv3_3/relu_0_split
I0316 22:50:06.075459 26470 net.cpp:106] Creating Layer conv3_3_conv3_3/relu_0_split
I0316 22:50:06.075461 26470 net.cpp:454] conv3_3_conv3_3/relu_0_split <- conv3_3
I0316 22:50:06.075464 26470 net.cpp:411] conv3_3_conv3_3/relu_0_split -> conv3_3_conv3_3/relu_0_split_0
I0316 22:50:06.075469 26470 net.cpp:411] conv3_3_conv3_3/relu_0_split -> conv3_3_conv3_3/relu_0_split_1
I0316 22:50:06.075492 26470 net.cpp:150] Setting up conv3_3_conv3_3/relu_0_split
I0316 22:50:06.075496 26470 net.cpp:157] Top shape: 1 512 60 60 (1843200)
I0316 22:50:06.075500 26470 net.cpp:157] Top shape: 1 512 60 60 (1843200)
I0316 22:50:06.075502 26470 net.cpp:165] Memory required for data: 730207232
I0316 22:50:06.075505 26470 layer_factory.hpp:77] Creating layer conv3_4_1x1_reduce
I0316 22:50:06.075510 26470 net.cpp:106] Creating Layer conv3_4_1x1_reduce
I0316 22:50:06.075513 26470 net.cpp:454] conv3_4_1x1_reduce <- conv3_3_conv3_3/relu_0_split_0
I0316 22:50:06.075517 26470 net.cpp:411] conv3_4_1x1_reduce -> conv3_4_1x1_reduce
I0316 22:50:06.077132 26470 net.cpp:150] Setting up conv3_4_1x1_reduce
I0316 22:50:06.077137 26470 net.cpp:157] Top shape: 1 128 60 60 (460800)
I0316 22:50:06.077139 26470 net.cpp:165] Memory required for data: 732050432
I0316 22:50:06.077142 26470 layer_factory.hpp:77] Creating layer conv3_4_1x1_reduce/bn
I0316 22:50:06.077149 26470 net.cpp:106] Creating Layer conv3_4_1x1_reduce/bn
I0316 22:50:06.077152 26470 net.cpp:454] conv3_4_1x1_reduce/bn <- conv3_4_1x1_reduce
I0316 22:50:06.077157 26470 net.cpp:397] conv3_4_1x1_reduce/bn -> conv3_4_1x1_reduce (in-place)
I0316 22:50:06.077294 26470 net.cpp:150] Setting up conv3_4_1x1_reduce/bn
I0316 22:50:06.077298 26470 net.cpp:157] Top shape: 1 128 60 60 (460800)
I0316 22:50:06.077301 26470 net.cpp:165] Memory required for data: 733893632
I0316 22:50:06.077304 26470 layer_factory.hpp:77] Creating layer conv3_4_1x1_reduce/relu
I0316 22:50:06.077307 26470 net.cpp:106] Creating Layer conv3_4_1x1_reduce/relu
I0316 22:50:06.077311 26470 net.cpp:454] conv3_4_1x1_reduce/relu <- conv3_4_1x1_reduce
I0316 22:50:06.077316 26470 net.cpp:397] conv3_4_1x1_reduce/relu -> conv3_4_1x1_reduce (in-place)
I0316 22:50:06.077320 26470 net.cpp:150] Setting up conv3_4_1x1_reduce/relu
I0316 22:50:06.077322 26470 net.cpp:157] Top shape: 1 128 60 60 (460800)
I0316 22:50:06.077324 26470 net.cpp:165] Memory required for data: 735736832
I0316 22:50:06.077327 26470 layer_factory.hpp:77] Creating layer conv3_4_3x3
I0316 22:50:06.077330 26470 net.cpp:106] Creating Layer conv3_4_3x3
I0316 22:50:06.077332 26470 net.cpp:454] conv3_4_3x3 <- conv3_4_1x1_reduce
I0316 22:50:06.077337 26470 net.cpp:411] conv3_4_3x3 -> conv3_4_3x3
I0316 22:50:06.081323 26470 net.cpp:150] Setting up conv3_4_3x3
I0316 22:50:06.081332 26470 net.cpp:157] Top shape: 1 128 60 60 (460800)
I0316 22:50:06.081336 26470 net.cpp:165] Memory required for data: 737580032
I0316 22:50:06.081339 26470 layer_factory.hpp:77] Creating layer conv3_4_3x3/bn
I0316 22:50:06.081347 26470 net.cpp:106] Creating Layer conv3_4_3x3/bn
I0316 22:50:06.081351 26470 net.cpp:454] conv3_4_3x3/bn <- conv3_4_3x3
I0316 22:50:06.081354 26470 net.cpp:397] conv3_4_3x3/bn -> conv3_4_3x3 (in-place)
I0316 22:50:06.081506 26470 net.cpp:150] Setting up conv3_4_3x3/bn
I0316 22:50:06.081511 26470 net.cpp:157] Top shape: 1 128 60 60 (460800)
I0316 22:50:06.081513 26470 net.cpp:165] Memory required for data: 739423232
I0316 22:50:06.081519 26470 layer_factory.hpp:77] Creating layer conv3_4_3x3/relu
I0316 22:50:06.081523 26470 net.cpp:106] Creating Layer conv3_4_3x3/relu
I0316 22:50:06.081526 26470 net.cpp:454] conv3_4_3x3/relu <- conv3_4_3x3
I0316 22:50:06.081529 26470 net.cpp:397] conv3_4_3x3/relu -> conv3_4_3x3 (in-place)
I0316 22:50:06.081533 26470 net.cpp:150] Setting up conv3_4_3x3/relu
I0316 22:50:06.081537 26470 net.cpp:157] Top shape: 1 128 60 60 (460800)
I0316 22:50:06.081538 26470 net.cpp:165] Memory required for data: 741266432
I0316 22:50:06.081542 26470 layer_factory.hpp:77] Creating layer conv3_4_1x1_increase
I0316 22:50:06.081547 26470 net.cpp:106] Creating Layer conv3_4_1x1_increase
I0316 22:50:06.081550 26470 net.cpp:454] conv3_4_1x1_increase <- conv3_4_3x3
I0316 22:50:06.081557 26470 net.cpp:411] conv3_4_1x1_increase -> conv3_4_1x1_increase
I0316 22:50:06.083528 26470 net.cpp:150] Setting up conv3_4_1x1_increase
I0316 22:50:06.083534 26470 net.cpp:157] Top shape: 1 512 60 60 (1843200)
I0316 22:50:06.083535 26470 net.cpp:165] Memory required for data: 748639232
I0316 22:50:06.083540 26470 layer_factory.hpp:77] Creating layer conv3_4_1x1_increase/bn
I0316 22:50:06.083549 26470 net.cpp:106] Creating Layer conv3_4_1x1_increase/bn
I0316 22:50:06.083551 26470 net.cpp:454] conv3_4_1x1_increase/bn <- conv3_4_1x1_increase
I0316 22:50:06.083559 26470 net.cpp:397] conv3_4_1x1_increase/bn -> conv3_4_1x1_increase (in-place)
I0316 22:50:06.083736 26470 net.cpp:150] Setting up conv3_4_1x1_increase/bn
I0316 22:50:06.083741 26470 net.cpp:157] Top shape: 1 512 60 60 (1843200)
I0316 22:50:06.083744 26470 net.cpp:165] Memory required for data: 756012032
I0316 22:50:06.083786 26470 layer_factory.hpp:77] Creating layer conv3_4
I0316 22:50:06.083794 26470 net.cpp:106] Creating Layer conv3_4
I0316 22:50:06.083797 26470 net.cpp:454] conv3_4 <- conv3_3_conv3_3/relu_0_split_1
I0316 22:50:06.083801 26470 net.cpp:454] conv3_4 <- conv3_4_1x1_increase
I0316 22:50:06.083804 26470 net.cpp:411] conv3_4 -> conv3_4
I0316 22:50:06.083822 26470 net.cpp:150] Setting up conv3_4
I0316 22:50:06.083827 26470 net.cpp:157] Top shape: 1 512 60 60 (1843200)
I0316 22:50:06.083828 26470 net.cpp:165] Memory required for data: 763384832
I0316 22:50:06.083832 26470 layer_factory.hpp:77] Creating layer conv3_4/relu
I0316 22:50:06.083839 26470 net.cpp:106] Creating Layer conv3_4/relu
I0316 22:50:06.083842 26470 net.cpp:454] conv3_4/relu <- conv3_4
I0316 22:50:06.083844 26470 net.cpp:397] conv3_4/relu -> conv3_4 (in-place)
I0316 22:50:06.083849 26470 net.cpp:150] Setting up conv3_4/relu
I0316 22:50:06.083853 26470 net.cpp:157] Top shape: 1 512 60 60 (1843200)
I0316 22:50:06.083855 26470 net.cpp:165] Memory required for data: 770757632
I0316 22:50:06.083858 26470 layer_factory.hpp:77] Creating layer conv3_4_conv3_4/relu_0_split
I0316 22:50:06.083864 26470 net.cpp:106] Creating Layer conv3_4_conv3_4/relu_0_split
I0316 22:50:06.083866 26470 net.cpp:454] conv3_4_conv3_4/relu_0_split <- conv3_4
I0316 22:50:06.083869 26470 net.cpp:411] conv3_4_conv3_4/relu_0_split -> conv3_4_conv3_4/relu_0_split_0
I0316 22:50:06.083876 26470 net.cpp:411] conv3_4_conv3_4/relu_0_split -> conv3_4_conv3_4/relu_0_split_1
I0316 22:50:06.083901 26470 net.cpp:150] Setting up conv3_4_conv3_4/relu_0_split
I0316 22:50:06.083905 26470 net.cpp:157] Top shape: 1 512 60 60 (1843200)
I0316 22:50:06.083909 26470 net.cpp:157] Top shape: 1 512 60 60 (1843200)
I0316 22:50:06.083911 26470 net.cpp:165] Memory required for data: 785503232
I0316 22:50:06.083914 26470 layer_factory.hpp:77] Creating layer conv4_1_1x1_reduce
I0316 22:50:06.083923 26470 net.cpp:106] Creating Layer conv4_1_1x1_reduce
I0316 22:50:06.083928 26470 net.cpp:454] conv4_1_1x1_reduce <- conv3_4_conv3_4/relu_0_split_0
I0316 22:50:06.083932 26470 net.cpp:411] conv4_1_1x1_reduce -> conv4_1_1x1_reduce
I0316 22:50:06.087846 26470 net.cpp:150] Setting up conv4_1_1x1_reduce
I0316 22:50:06.087857 26470 net.cpp:157] Top shape: 1 256 60 60 (921600)
I0316 22:50:06.087859 26470 net.cpp:165] Memory required for data: 789189632
I0316 22:50:06.087864 26470 layer_factory.hpp:77] Creating layer conv4_1_1x1_reduce/bn
I0316 22:50:06.087870 26470 net.cpp:106] Creating Layer conv4_1_1x1_reduce/bn
I0316 22:50:06.087873 26470 net.cpp:454] conv4_1_1x1_reduce/bn <- conv4_1_1x1_reduce
I0316 22:50:06.087879 26470 net.cpp:397] conv4_1_1x1_reduce/bn -> conv4_1_1x1_reduce (in-place)
I0316 22:50:06.088040 26470 net.cpp:150] Setting up conv4_1_1x1_reduce/bn
I0316 22:50:06.088044 26470 net.cpp:157] Top shape: 1 256 60 60 (921600)
I0316 22:50:06.088047 26470 net.cpp:165] Memory required for data: 792876032
I0316 22:50:06.088052 26470 layer_factory.hpp:77] Creating layer conv4_1_1x1_reduce/relu
I0316 22:50:06.088058 26470 net.cpp:106] Creating Layer conv4_1_1x1_reduce/relu
I0316 22:50:06.088062 26470 net.cpp:454] conv4_1_1x1_reduce/relu <- conv4_1_1x1_reduce
I0316 22:50:06.088064 26470 net.cpp:397] conv4_1_1x1_reduce/relu -> conv4_1_1x1_reduce (in-place)
I0316 22:50:06.088069 26470 net.cpp:150] Setting up conv4_1_1x1_reduce/relu
I0316 22:50:06.088073 26470 net.cpp:157] Top shape: 1 256 60 60 (921600)
I0316 22:50:06.088075 26470 net.cpp:165] Memory required for data: 796562432
I0316 22:50:06.088078 26470 layer_factory.hpp:77] Creating layer conv4_1_3x3
I0316 22:50:06.088083 26470 net.cpp:106] Creating Layer conv4_1_3x3
I0316 22:50:06.088085 26470 net.cpp:454] conv4_1_3x3 <- conv4_1_1x1_reduce
I0316 22:50:06.088089 26470 net.cpp:411] conv4_1_3x3 -> conv4_1_3x3
I0316 22:50:06.104419 26470 net.cpp:150] Setting up conv4_1_3x3
I0316 22:50:06.104434 26470 net.cpp:157] Top shape: 1 256 60 60 (921600)
I0316 22:50:06.104436 26470 net.cpp:165] Memory required for data: 800248832
I0316 22:50:06.104442 26470 layer_factory.hpp:77] Creating layer conv4_1_3x3/bn
I0316 22:50:06.104449 26470 net.cpp:106] Creating Layer conv4_1_3x3/bn
I0316 22:50:06.104454 26470 net.cpp:454] conv4_1_3x3/bn <- conv4_1_3x3
I0316 22:50:06.104459 26470 net.cpp:397] conv4_1_3x3/bn -> conv4_1_3x3 (in-place)
I0316 22:50:06.104588 26470 net.cpp:150] Setting up conv4_1_3x3/bn
I0316 22:50:06.104591 26470 net.cpp:157] Top shape: 1 256 60 60 (921600)
I0316 22:50:06.104593 26470 net.cpp:165] Memory required for data: 803935232
I0316 22:50:06.104598 26470 layer_factory.hpp:77] Creating layer conv4_1_3x3/relu
I0316 22:50:06.104601 26470 net.cpp:106] Creating Layer conv4_1_3x3/relu
I0316 22:50:06.104604 26470 net.cpp:454] conv4_1_3x3/relu <- conv4_1_3x3
I0316 22:50:06.104607 26470 net.cpp:397] conv4_1_3x3/relu -> conv4_1_3x3 (in-place)
I0316 22:50:06.104610 26470 net.cpp:150] Setting up conv4_1_3x3/relu
I0316 22:50:06.104614 26470 net.cpp:157] Top shape: 1 256 60 60 (921600)
I0316 22:50:06.104615 26470 net.cpp:165] Memory required for data: 807621632
I0316 22:50:06.104616 26470 layer_factory.hpp:77] Creating layer conv4_1_1x1_increase
I0316 22:50:06.104621 26470 net.cpp:106] Creating Layer conv4_1_1x1_increase
I0316 22:50:06.104624 26470 net.cpp:454] conv4_1_1x1_increase <- conv4_1_3x3
I0316 22:50:06.104626 26470 net.cpp:411] conv4_1_1x1_increase -> conv4_1_1x1_increase
I0316 22:50:06.111991 26470 net.cpp:150] Setting up conv4_1_1x1_increase
I0316 22:50:06.112154 26470 net.cpp:157] Top shape: 1 1024 60 60 (3686400)
I0316 22:50:06.112179 26470 net.cpp:165] Memory required for data: 822367232
I0316 22:50:06.112198 26470 layer_factory.hpp:77] Creating layer conv4_1_1x1_increase/bn
I0316 22:50:06.112226 26470 net.cpp:106] Creating Layer conv4_1_1x1_increase/bn
I0316 22:50:06.112239 26470 net.cpp:454] conv4_1_1x1_increase/bn <- conv4_1_1x1_increase
I0316 22:50:06.112259 26470 net.cpp:397] conv4_1_1x1_increase/bn -> conv4_1_1x1_increase (in-place)
I0316 22:50:06.112555 26470 net.cpp:150] Setting up conv4_1_1x1_increase/bn
I0316 22:50:06.112572 26470 net.cpp:157] Top shape: 1 1024 60 60 (3686400)
I0316 22:50:06.112582 26470 net.cpp:165] Memory required for data: 837112832
I0316 22:50:06.112596 26470 layer_factory.hpp:77] Creating layer conv4_1_1x1_proj
I0316 22:50:06.112614 26470 net.cpp:106] Creating Layer conv4_1_1x1_proj
I0316 22:50:06.112625 26470 net.cpp:454] conv4_1_1x1_proj <- conv3_4_conv3_4/relu_0_split_1
I0316 22:50:06.112640 26470 net.cpp:411] conv4_1_1x1_proj -> conv4_1_1x1_proj
I0316 22:50:06.129092 26470 net.cpp:150] Setting up conv4_1_1x1_proj
I0316 22:50:06.129112 26470 net.cpp:157] Top shape: 1 1024 60 60 (3686400)
I0316 22:50:06.129114 26470 net.cpp:165] Memory required for data: 851858432
I0316 22:50:06.129122 26470 layer_factory.hpp:77] Creating layer conv4_1_1x1_proj/bn
I0316 22:50:06.129134 26470 net.cpp:106] Creating Layer conv4_1_1x1_proj/bn
I0316 22:50:06.129138 26470 net.cpp:454] conv4_1_1x1_proj/bn <- conv4_1_1x1_proj
I0316 22:50:06.129143 26470 net.cpp:397] conv4_1_1x1_proj/bn -> conv4_1_1x1_proj (in-place)
I0316 22:50:06.129287 26470 net.cpp:150] Setting up conv4_1_1x1_proj/bn
I0316 22:50:06.129292 26470 net.cpp:157] Top shape: 1 1024 60 60 (3686400)
I0316 22:50:06.129293 26470 net.cpp:165] Memory required for data: 866604032
I0316 22:50:06.129297 26470 layer_factory.hpp:77] Creating layer conv4_1
I0316 22:50:06.129302 26470 net.cpp:106] Creating Layer conv4_1
I0316 22:50:06.129303 26470 net.cpp:454] conv4_1 <- conv4_1_1x1_proj
I0316 22:50:06.129305 26470 net.cpp:454] conv4_1 <- conv4_1_1x1_increase
I0316 22:50:06.129308 26470 net.cpp:411] conv4_1 -> conv4_1
I0316 22:50:06.129321 26470 net.cpp:150] Setting up conv4_1
I0316 22:50:06.129324 26470 net.cpp:157] Top shape: 1 1024 60 60 (3686400)
I0316 22:50:06.129325 26470 net.cpp:165] Memory required for data: 881349632
I0316 22:50:06.129326 26470 layer_factory.hpp:77] Creating layer conv4_1/relu
I0316 22:50:06.129334 26470 net.cpp:106] Creating Layer conv4_1/relu
I0316 22:50:06.129336 26470 net.cpp:454] conv4_1/relu <- conv4_1
I0316 22:50:06.129338 26470 net.cpp:397] conv4_1/relu -> conv4_1 (in-place)
I0316 22:50:06.129341 26470 net.cpp:150] Setting up conv4_1/relu
I0316 22:50:06.129343 26470 net.cpp:157] Top shape: 1 1024 60 60 (3686400)
I0316 22:50:06.129345 26470 net.cpp:165] Memory required for data: 896095232
I0316 22:50:06.129348 26470 layer_factory.hpp:77] Creating layer conv4_1_conv4_1/relu_0_split
I0316 22:50:06.129350 26470 net.cpp:106] Creating Layer conv4_1_conv4_1/relu_0_split
I0316 22:50:06.129351 26470 net.cpp:454] conv4_1_conv4_1/relu_0_split <- conv4_1
I0316 22:50:06.129354 26470 net.cpp:411] conv4_1_conv4_1/relu_0_split -> conv4_1_conv4_1/relu_0_split_0
I0316 22:50:06.129357 26470 net.cpp:411] conv4_1_conv4_1/relu_0_split -> conv4_1_conv4_1/relu_0_split_1
I0316 22:50:06.129377 26470 net.cpp:150] Setting up conv4_1_conv4_1/relu_0_split
I0316 22:50:06.129380 26470 net.cpp:157] Top shape: 1 1024 60 60 (3686400)
I0316 22:50:06.129382 26470 net.cpp:157] Top shape: 1 1024 60 60 (3686400)
I0316 22:50:06.129384 26470 net.cpp:165] Memory required for data: 925586432
I0316 22:50:06.129385 26470 layer_factory.hpp:77] Creating layer conv4_2_1x1_reduce
I0316 22:50:06.129391 26470 net.cpp:106] Creating Layer conv4_2_1x1_reduce
I0316 22:50:06.129392 26470 net.cpp:454] conv4_2_1x1_reduce <- conv4_1_conv4_1/relu_0_split_0
I0316 22:50:06.129396 26470 net.cpp:411] conv4_2_1x1_reduce -> conv4_2_1x1_reduce
I0316 22:50:06.135120 26470 net.cpp:150] Setting up conv4_2_1x1_reduce
I0316 22:50:06.135144 26470 net.cpp:157] Top shape: 1 256 60 60 (921600)
I0316 22:50:06.135146 26470 net.cpp:165] Memory required for data: 929272832
I0316 22:50:06.135154 26470 layer_factory.hpp:77] Creating layer conv4_2_1x1_reduce/bn
I0316 22:50:06.135169 26470 net.cpp:106] Creating Layer conv4_2_1x1_reduce/bn
I0316 22:50:06.135172 26470 net.cpp:454] conv4_2_1x1_reduce/bn <- conv4_2_1x1_reduce
I0316 22:50:06.135179 26470 net.cpp:397] conv4_2_1x1_reduce/bn -> conv4_2_1x1_reduce (in-place)
I0316 22:50:06.135341 26470 net.cpp:150] Setting up conv4_2_1x1_reduce/bn
I0316 22:50:06.135345 26470 net.cpp:157] Top shape: 1 256 60 60 (921600)
I0316 22:50:06.135349 26470 net.cpp:165] Memory required for data: 932959232
I0316 22:50:06.135352 26470 layer_factory.hpp:77] Creating layer conv4_2_1x1_reduce/relu
I0316 22:50:06.135359 26470 net.cpp:106] Creating Layer conv4_2_1x1_reduce/relu
I0316 22:50:06.135360 26470 net.cpp:454] conv4_2_1x1_reduce/relu <- conv4_2_1x1_reduce
I0316 22:50:06.135363 26470 net.cpp:397] conv4_2_1x1_reduce/relu -> conv4_2_1x1_reduce (in-place)
I0316 22:50:06.135366 26470 net.cpp:150] Setting up conv4_2_1x1_reduce/relu
I0316 22:50:06.135368 26470 net.cpp:157] Top shape: 1 256 60 60 (921600)
I0316 22:50:06.135370 26470 net.cpp:165] Memory required for data: 936645632
I0316 22:50:06.135371 26470 layer_factory.hpp:77] Creating layer conv4_2_3x3
I0316 22:50:06.135382 26470 net.cpp:106] Creating Layer conv4_2_3x3
I0316 22:50:06.135385 26470 net.cpp:454] conv4_2_3x3 <- conv4_2_1x1_reduce
I0316 22:50:06.135390 26470 net.cpp:411] conv4_2_3x3 -> conv4_2_3x3
I0316 22:50:06.148847 26470 net.cpp:150] Setting up conv4_2_3x3
I0316 22:50:06.148865 26470 net.cpp:157] Top shape: 1 256 60 60 (921600)
I0316 22:50:06.148867 26470 net.cpp:165] Memory required for data: 940332032
I0316 22:50:06.148874 26470 layer_factory.hpp:77] Creating layer conv4_2_3x3/bn
I0316 22:50:06.148887 26470 net.cpp:106] Creating Layer conv4_2_3x3/bn
I0316 22:50:06.148891 26470 net.cpp:454] conv4_2_3x3/bn <- conv4_2_3x3
I0316 22:50:06.148895 26470 net.cpp:397] conv4_2_3x3/bn -> conv4_2_3x3 (in-place)
I0316 22:50:06.149027 26470 net.cpp:150] Setting up conv4_2_3x3/bn
I0316 22:50:06.149031 26470 net.cpp:157] Top shape: 1 256 60 60 (921600)
I0316 22:50:06.149034 26470 net.cpp:165] Memory required for data: 944018432
I0316 22:50:06.149037 26470 layer_factory.hpp:77] Creating layer conv4_2_3x3/relu
I0316 22:50:06.149041 26470 net.cpp:106] Creating Layer conv4_2_3x3/relu
I0316 22:50:06.149044 26470 net.cpp:454] conv4_2_3x3/relu <- conv4_2_3x3
I0316 22:50:06.149046 26470 net.cpp:397] conv4_2_3x3/relu -> conv4_2_3x3 (in-place)
I0316 22:50:06.149049 26470 net.cpp:150] Setting up conv4_2_3x3/relu
I0316 22:50:06.149052 26470 net.cpp:157] Top shape: 1 256 60 60 (921600)
I0316 22:50:06.149054 26470 net.cpp:165] Memory required for data: 947704832
I0316 22:50:06.149055 26470 layer_factory.hpp:77] Creating layer conv4_2_1x1_increase
I0316 22:50:06.149061 26470 net.cpp:106] Creating Layer conv4_2_1x1_increase
I0316 22:50:06.149063 26470 net.cpp:454] conv4_2_1x1_increase <- conv4_2_3x3
I0316 22:50:06.149067 26470 net.cpp:411] conv4_2_1x1_increase -> conv4_2_1x1_increase
I0316 22:50:06.155462 26470 net.cpp:150] Setting up conv4_2_1x1_increase
I0316 22:50:06.155478 26470 net.cpp:157] Top shape: 1 1024 60 60 (3686400)
I0316 22:50:06.155479 26470 net.cpp:165] Memory required for data: 962450432
I0316 22:50:06.155488 26470 layer_factory.hpp:77] Creating layer conv4_2_1x1_increase/bn
I0316 22:50:06.155498 26470 net.cpp:106] Creating Layer conv4_2_1x1_increase/bn
I0316 22:50:06.155503 26470 net.cpp:454] conv4_2_1x1_increase/bn <- conv4_2_1x1_increase
I0316 22:50:06.155506 26470 net.cpp:397] conv4_2_1x1_increase/bn -> conv4_2_1x1_increase (in-place)
I0316 22:50:06.155645 26470 net.cpp:150] Setting up conv4_2_1x1_increase/bn
I0316 22:50:06.155650 26470 net.cpp:157] Top shape: 1 1024 60 60 (3686400)
I0316 22:50:06.155652 26470 net.cpp:165] Memory required for data: 977196032
I0316 22:50:06.155656 26470 layer_factory.hpp:77] Creating layer conv4_2
I0316 22:50:06.155663 26470 net.cpp:106] Creating Layer conv4_2
I0316 22:50:06.155664 26470 net.cpp:454] conv4_2 <- conv4_1_conv4_1/relu_0_split_1
I0316 22:50:06.155666 26470 net.cpp:454] conv4_2 <- conv4_2_1x1_increase
I0316 22:50:06.155669 26470 net.cpp:411] conv4_2 -> conv4_2
I0316 22:50:06.155683 26470 net.cpp:150] Setting up conv4_2
I0316 22:50:06.155688 26470 net.cpp:157] Top shape: 1 1024 60 60 (3686400)
I0316 22:50:06.155689 26470 net.cpp:165] Memory required for data: 991941632
I0316 22:50:06.155690 26470 layer_factory.hpp:77] Creating layer conv4_2/relu
I0316 22:50:06.155694 26470 net.cpp:106] Creating Layer conv4_2/relu
I0316 22:50:06.155697 26470 net.cpp:454] conv4_2/relu <- conv4_2
I0316 22:50:06.155699 26470 net.cpp:397] conv4_2/relu -> conv4_2 (in-place)
I0316 22:50:06.155702 26470 net.cpp:150] Setting up conv4_2/relu
I0316 22:50:06.155704 26470 net.cpp:157] Top shape: 1 1024 60 60 (3686400)
I0316 22:50:06.155706 26470 net.cpp:165] Memory required for data: 1006687232
I0316 22:50:06.155707 26470 layer_factory.hpp:77] Creating layer conv4_2_conv4_2/relu_0_split
I0316 22:50:06.155711 26470 net.cpp:106] Creating Layer conv4_2_conv4_2/relu_0_split
I0316 22:50:06.155714 26470 net.cpp:454] conv4_2_conv4_2/relu_0_split <- conv4_2
I0316 22:50:06.155715 26470 net.cpp:411] conv4_2_conv4_2/relu_0_split -> conv4_2_conv4_2/relu_0_split_0
I0316 22:50:06.155719 26470 net.cpp:411] conv4_2_conv4_2/relu_0_split -> conv4_2_conv4_2/relu_0_split_1
I0316 22:50:06.155738 26470 net.cpp:150] Setting up conv4_2_conv4_2/relu_0_split
I0316 22:50:06.155741 26470 net.cpp:157] Top shape: 1 1024 60 60 (3686400)
I0316 22:50:06.155745 26470 net.cpp:157] Top shape: 1 1024 60 60 (3686400)
I0316 22:50:06.155745 26470 net.cpp:165] Memory required for data: 1036178432
I0316 22:50:06.155747 26470 layer_factory.hpp:77] Creating layer conv4_3_1x1_reduce
I0316 22:50:06.155752 26470 net.cpp:106] Creating Layer conv4_3_1x1_reduce
I0316 22:50:06.155755 26470 net.cpp:454] conv4_3_1x1_reduce <- conv4_2_conv4_2/relu_0_split_0
I0316 22:50:06.155758 26470 net.cpp:411] conv4_3_1x1_reduce -> conv4_3_1x1_reduce
I0316 22:50:06.161496 26470 net.cpp:150] Setting up conv4_3_1x1_reduce
I0316 22:50:06.161530 26470 net.cpp:157] Top shape: 1 256 60 60 (921600)
I0316 22:50:06.161533 26470 net.cpp:165] Memory required for data: 1039864832
I0316 22:50:06.161545 26470 layer_factory.hpp:77] Creating layer conv4_3_1x1_reduce/bn
I0316 22:50:06.161561 26470 net.cpp:106] Creating Layer conv4_3_1x1_reduce/bn
I0316 22:50:06.161567 26470 net.cpp:454] conv4_3_1x1_reduce/bn <- conv4_3_1x1_reduce
I0316 22:50:06.161579 26470 net.cpp:397] conv4_3_1x1_reduce/bn -> conv4_3_1x1_reduce (in-place)
I0316 22:50:06.161757 26470 net.cpp:150] Setting up conv4_3_1x1_reduce/bn
I0316 22:50:06.161762 26470 net.cpp:157] Top shape: 1 256 60 60 (921600)
I0316 22:50:06.161764 26470 net.cpp:165] Memory required for data: 1043551232
I0316 22:50:06.161769 26470 layer_factory.hpp:77] Creating layer conv4_3_1x1_reduce/relu
I0316 22:50:06.161778 26470 net.cpp:106] Creating Layer conv4_3_1x1_reduce/relu
I0316 22:50:06.161779 26470 net.cpp:454] conv4_3_1x1_reduce/relu <- conv4_3_1x1_reduce
I0316 22:50:06.161782 26470 net.cpp:397] conv4_3_1x1_reduce/relu -> conv4_3_1x1_reduce (in-place)
I0316 22:50:06.161787 26470 net.cpp:150] Setting up conv4_3_1x1_reduce/relu
I0316 22:50:06.161788 26470 net.cpp:157] Top shape: 1 256 60 60 (921600)
I0316 22:50:06.161790 26470 net.cpp:165] Memory required for data: 1047237632
I0316 22:50:06.161792 26470 layer_factory.hpp:77] Creating layer conv4_3_3x3
I0316 22:50:06.161801 26470 net.cpp:106] Creating Layer conv4_3_3x3
I0316 22:50:06.161803 26470 net.cpp:454] conv4_3_3x3 <- conv4_3_1x1_reduce
I0316 22:50:06.161808 26470 net.cpp:411] conv4_3_3x3 -> conv4_3_3x3
I0316 22:50:06.175066 26470 net.cpp:150] Setting up conv4_3_3x3
I0316 22:50:06.175101 26470 net.cpp:157] Top shape: 1 256 60 60 (921600)
I0316 22:50:06.175103 26470 net.cpp:165] Memory required for data: 1050924032
I0316 22:50:06.175114 26470 layer_factory.hpp:77] Creating layer conv4_3_3x3/bn
I0316 22:50:06.175130 26470 net.cpp:106] Creating Layer conv4_3_3x3/bn
I0316 22:50:06.175137 26470 net.cpp:454] conv4_3_3x3/bn <- conv4_3_3x3
I0316 22:50:06.175144 26470 net.cpp:397] conv4_3_3x3/bn -> conv4_3_3x3 (in-place)
I0316 22:50:06.175305 26470 net.cpp:150] Setting up conv4_3_3x3/bn
I0316 22:50:06.175312 26470 net.cpp:157] Top shape: 1 256 60 60 (921600)
I0316 22:50:06.175312 26470 net.cpp:165] Memory required for data: 1054610432
I0316 22:50:06.175318 26470 layer_factory.hpp:77] Creating layer conv4_3_3x3/relu
I0316 22:50:06.175324 26470 net.cpp:106] Creating Layer conv4_3_3x3/relu
I0316 22:50:06.175326 26470 net.cpp:454] conv4_3_3x3/relu <- conv4_3_3x3
I0316 22:50:06.175330 26470 net.cpp:397] conv4_3_3x3/relu -> conv4_3_3x3 (in-place)
I0316 22:50:06.175334 26470 net.cpp:150] Setting up conv4_3_3x3/relu
I0316 22:50:06.175336 26470 net.cpp:157] Top shape: 1 256 60 60 (921600)
I0316 22:50:06.175338 26470 net.cpp:165] Memory required for data: 1058296832
I0316 22:50:06.175339 26470 layer_factory.hpp:77] Creating layer conv4_3_1x1_increase
I0316 22:50:06.175346 26470 net.cpp:106] Creating Layer conv4_3_1x1_increase
I0316 22:50:06.175348 26470 net.cpp:454] conv4_3_1x1_increase <- conv4_3_3x3
I0316 22:50:06.175353 26470 net.cpp:411] conv4_3_1x1_increase -> conv4_3_1x1_increase
I0316 22:50:06.182023 26470 net.cpp:150] Setting up conv4_3_1x1_increase
I0316 22:50:06.182032 26470 net.cpp:157] Top shape: 1 1024 60 60 (3686400)
I0316 22:50:06.182034 26470 net.cpp:165] Memory required for data: 1073042432
I0316 22:50:06.182039 26470 layer_factory.hpp:77] Creating layer conv4_3_1x1_increase/bn
I0316 22:50:06.182044 26470 net.cpp:106] Creating Layer conv4_3_1x1_increase/bn
I0316 22:50:06.182047 26470 net.cpp:454] conv4_3_1x1_increase/bn <- conv4_3_1x1_increase
I0316 22:50:06.182050 26470 net.cpp:397] conv4_3_1x1_increase/bn -> conv4_3_1x1_increase (in-place)
I0316 22:50:06.182181 26470 net.cpp:150] Setting up conv4_3_1x1_increase/bn
I0316 22:50:06.182185 26470 net.cpp:157] Top shape: 1 1024 60 60 (3686400)
I0316 22:50:06.182186 26470 net.cpp:165] Memory required for data: 1087788032
I0316 22:50:06.182191 26470 layer_factory.hpp:77] Creating layer conv4_3
I0316 22:50:06.182194 26470 net.cpp:106] Creating Layer conv4_3
I0316 22:50:06.182198 26470 net.cpp:454] conv4_3 <- conv4_2_conv4_2/relu_0_split_1
I0316 22:50:06.182199 26470 net.cpp:454] conv4_3 <- conv4_3_1x1_increase
I0316 22:50:06.182204 26470 net.cpp:411] conv4_3 -> conv4_3
I0316 22:50:06.182216 26470 net.cpp:150] Setting up conv4_3
I0316 22:50:06.182220 26470 net.cpp:157] Top shape: 1 1024 60 60 (3686400)
I0316 22:50:06.182222 26470 net.cpp:165] Memory required for data: 1102533632
I0316 22:50:06.182224 26470 layer_factory.hpp:77] Creating layer conv4_3/relu
I0316 22:50:06.182226 26470 net.cpp:106] Creating Layer conv4_3/relu
I0316 22:50:06.182229 26470 net.cpp:454] conv4_3/relu <- conv4_3
I0316 22:50:06.182230 26470 net.cpp:397] conv4_3/relu -> conv4_3 (in-place)
I0316 22:50:06.182234 26470 net.cpp:150] Setting up conv4_3/relu
I0316 22:50:06.182235 26470 net.cpp:157] Top shape: 1 1024 60 60 (3686400)
I0316 22:50:06.182237 26470 net.cpp:165] Memory required for data: 1117279232
I0316 22:50:06.182238 26470 layer_factory.hpp:77] Creating layer conv4_3_conv4_3/relu_0_split
I0316 22:50:06.182241 26470 net.cpp:106] Creating Layer conv4_3_conv4_3/relu_0_split
I0316 22:50:06.182243 26470 net.cpp:454] conv4_3_conv4_3/relu_0_split <- conv4_3
I0316 22:50:06.182246 26470 net.cpp:411] conv4_3_conv4_3/relu_0_split -> conv4_3_conv4_3/relu_0_split_0
I0316 22:50:06.182250 26470 net.cpp:411] conv4_3_conv4_3/relu_0_split -> conv4_3_conv4_3/relu_0_split_1
I0316 22:50:06.182270 26470 net.cpp:150] Setting up conv4_3_conv4_3/relu_0_split
I0316 22:50:06.182272 26470 net.cpp:157] Top shape: 1 1024 60 60 (3686400)
I0316 22:50:06.182274 26470 net.cpp:157] Top shape: 1 1024 60 60 (3686400)
I0316 22:50:06.182276 26470 net.cpp:165] Memory required for data: 1146770432
I0316 22:50:06.182278 26470 layer_factory.hpp:77] Creating layer conv4_4_1x1_reduce
I0316 22:50:06.182282 26470 net.cpp:106] Creating Layer conv4_4_1x1_reduce
I0316 22:50:06.182286 26470 net.cpp:454] conv4_4_1x1_reduce <- conv4_3_conv4_3/relu_0_split_0
I0316 22:50:06.182288 26470 net.cpp:411] conv4_4_1x1_reduce -> conv4_4_1x1_reduce
I0316 22:50:06.189576 26470 net.cpp:150] Setting up conv4_4_1x1_reduce
I0316 22:50:06.189712 26470 net.cpp:157] Top shape: 1 256 60 60 (921600)
I0316 22:50:06.189731 26470 net.cpp:165] Memory required for data: 1150456832
I0316 22:50:06.189749 26470 layer_factory.hpp:77] Creating layer conv4_4_1x1_reduce/bn
I0316 22:50:06.189806 26470 net.cpp:106] Creating Layer conv4_4_1x1_reduce/bn
I0316 22:50:06.189823 26470 net.cpp:454] conv4_4_1x1_reduce/bn <- conv4_4_1x1_reduce
I0316 22:50:06.189846 26470 net.cpp:397] conv4_4_1x1_reduce/bn -> conv4_4_1x1_reduce (in-place)
I0316 22:50:06.190089 26470 net.cpp:150] Setting up conv4_4_1x1_reduce/bn
I0316 22:50:06.190104 26470 net.cpp:157] Top shape: 1 256 60 60 (921600)
I0316 22:50:06.190112 26470 net.cpp:165] Memory required for data: 1154143232
I0316 22:50:06.190127 26470 layer_factory.hpp:77] Creating layer conv4_4_1x1_reduce/relu
I0316 22:50:06.190142 26470 net.cpp:106] Creating Layer conv4_4_1x1_reduce/relu
I0316 22:50:06.190151 26470 net.cpp:454] conv4_4_1x1_reduce/relu <- conv4_4_1x1_reduce
I0316 22:50:06.190165 26470 net.cpp:397] conv4_4_1x1_reduce/relu -> conv4_4_1x1_reduce (in-place)
I0316 22:50:06.190177 26470 net.cpp:150] Setting up conv4_4_1x1_reduce/relu
I0316 22:50:06.190187 26470 net.cpp:157] Top shape: 1 256 60 60 (921600)
I0316 22:50:06.190196 26470 net.cpp:165] Memory required for data: 1157829632
I0316 22:50:06.190204 26470 layer_factory.hpp:77] Creating layer conv4_4_3x3
I0316 22:50:06.190220 26470 net.cpp:106] Creating Layer conv4_4_3x3
I0316 22:50:06.190229 26470 net.cpp:454] conv4_4_3x3 <- conv4_4_1x1_reduce
I0316 22:50:06.190241 26470 net.cpp:411] conv4_4_3x3 -> conv4_4_3x3
I0316 22:50:06.206698 26470 net.cpp:150] Setting up conv4_4_3x3
I0316 22:50:06.206719 26470 net.cpp:157] Top shape: 1 256 60 60 (921600)
I0316 22:50:06.206722 26470 net.cpp:165] Memory required for data: 1161516032
I0316 22:50:06.206728 26470 layer_factory.hpp:77] Creating layer conv4_4_3x3/bn
I0316 22:50:06.206737 26470 net.cpp:106] Creating Layer conv4_4_3x3/bn
I0316 22:50:06.206740 26470 net.cpp:454] conv4_4_3x3/bn <- conv4_4_3x3
I0316 22:50:06.206745 26470 net.cpp:397] conv4_4_3x3/bn -> conv4_4_3x3 (in-place)
I0316 22:50:06.206885 26470 net.cpp:150] Setting up conv4_4_3x3/bn
I0316 22:50:06.206889 26470 net.cpp:157] Top shape: 1 256 60 60 (921600)
I0316 22:50:06.206890 26470 net.cpp:165] Memory required for data: 1165202432
I0316 22:50:06.206895 26470 layer_factory.hpp:77] Creating layer conv4_4_3x3/relu
I0316 22:50:06.206898 26470 net.cpp:106] Creating Layer conv4_4_3x3/relu
I0316 22:50:06.206900 26470 net.cpp:454] conv4_4_3x3/relu <- conv4_4_3x3
I0316 22:50:06.206902 26470 net.cpp:397] conv4_4_3x3/relu -> conv4_4_3x3 (in-place)
I0316 22:50:06.206905 26470 net.cpp:150] Setting up conv4_4_3x3/relu
I0316 22:50:06.206907 26470 net.cpp:157] Top shape: 1 256 60 60 (921600)
I0316 22:50:06.206909 26470 net.cpp:165] Memory required for data: 1168888832
I0316 22:50:06.206910 26470 layer_factory.hpp:77] Creating layer conv4_4_1x1_increase
I0316 22:50:06.206917 26470 net.cpp:106] Creating Layer conv4_4_1x1_increase
I0316 22:50:06.206918 26470 net.cpp:454] conv4_4_1x1_increase <- conv4_4_3x3
I0316 22:50:06.206921 26470 net.cpp:411] conv4_4_1x1_increase -> conv4_4_1x1_increase
I0316 22:50:06.213261 26470 net.cpp:150] Setting up conv4_4_1x1_increase
I0316 22:50:06.213274 26470 net.cpp:157] Top shape: 1 1024 60 60 (3686400)
I0316 22:50:06.213276 26470 net.cpp:165] Memory required for data: 1183634432
I0316 22:50:06.213284 26470 layer_factory.hpp:77] Creating layer conv4_4_1x1_increase/bn
I0316 22:50:06.213296 26470 net.cpp:106] Creating Layer conv4_4_1x1_increase/bn
I0316 22:50:06.213301 26470 net.cpp:454] conv4_4_1x1_increase/bn <- conv4_4_1x1_increase
I0316 22:50:06.213305 26470 net.cpp:397] conv4_4_1x1_increase/bn -> conv4_4_1x1_increase (in-place)
I0316 22:50:06.213452 26470 net.cpp:150] Setting up conv4_4_1x1_increase/bn
I0316 22:50:06.213456 26470 net.cpp:157] Top shape: 1 1024 60 60 (3686400)
I0316 22:50:06.213457 26470 net.cpp:165] Memory required for data: 1198380032
I0316 22:50:06.213461 26470 layer_factory.hpp:77] Creating layer conv4_4
I0316 22:50:06.213465 26470 net.cpp:106] Creating Layer conv4_4
I0316 22:50:06.213467 26470 net.cpp:454] conv4_4 <- conv4_3_conv4_3/relu_0_split_1
I0316 22:50:06.213469 26470 net.cpp:454] conv4_4 <- conv4_4_1x1_increase
I0316 22:50:06.213472 26470 net.cpp:411] conv4_4 -> conv4_4
I0316 22:50:06.213486 26470 net.cpp:150] Setting up conv4_4
I0316 22:50:06.213490 26470 net.cpp:157] Top shape: 1 1024 60 60 (3686400)
I0316 22:50:06.213490 26470 net.cpp:165] Memory required for data: 1213125632
I0316 22:50:06.213492 26470 layer_factory.hpp:77] Creating layer conv4_4/relu
I0316 22:50:06.213496 26470 net.cpp:106] Creating Layer conv4_4/relu
I0316 22:50:06.213498 26470 net.cpp:454] conv4_4/relu <- conv4_4
I0316 22:50:06.213500 26470 net.cpp:397] conv4_4/relu -> conv4_4 (in-place)
I0316 22:50:06.213503 26470 net.cpp:150] Setting up conv4_4/relu
I0316 22:50:06.213507 26470 net.cpp:157] Top shape: 1 1024 60 60 (3686400)
I0316 22:50:06.213508 26470 net.cpp:165] Memory required for data: 1227871232
I0316 22:50:06.213510 26470 layer_factory.hpp:77] Creating layer conv4_4_conv4_4/relu_0_split
I0316 22:50:06.213513 26470 net.cpp:106] Creating Layer conv4_4_conv4_4/relu_0_split
I0316 22:50:06.213521 26470 net.cpp:454] conv4_4_conv4_4/relu_0_split <- conv4_4
I0316 22:50:06.213522 26470 net.cpp:411] conv4_4_conv4_4/relu_0_split -> conv4_4_conv4_4/relu_0_split_0
I0316 22:50:06.213526 26470 net.cpp:411] conv4_4_conv4_4/relu_0_split -> conv4_4_conv4_4/relu_0_split_1
I0316 22:50:06.213546 26470 net.cpp:150] Setting up conv4_4_conv4_4/relu_0_split
I0316 22:50:06.213549 26470 net.cpp:157] Top shape: 1 1024 60 60 (3686400)
I0316 22:50:06.213551 26470 net.cpp:157] Top shape: 1 1024 60 60 (3686400)
I0316 22:50:06.213552 26470 net.cpp:165] Memory required for data: 1257362432
I0316 22:50:06.213554 26470 layer_factory.hpp:77] Creating layer conv4_5_1x1_reduce
I0316 22:50:06.213560 26470 net.cpp:106] Creating Layer conv4_5_1x1_reduce
I0316 22:50:06.213562 26470 net.cpp:454] conv4_5_1x1_reduce <- conv4_4_conv4_4/relu_0_split_0
I0316 22:50:06.213565 26470 net.cpp:411] conv4_5_1x1_reduce -> conv4_5_1x1_reduce
I0316 22:50:06.219250 26470 net.cpp:150] Setting up conv4_5_1x1_reduce
I0316 22:50:06.219262 26470 net.cpp:157] Top shape: 1 256 60 60 (921600)
I0316 22:50:06.219265 26470 net.cpp:165] Memory required for data: 1261048832
I0316 22:50:06.219269 26470 layer_factory.hpp:77] Creating layer conv4_5_1x1_reduce/bn
I0316 22:50:06.219275 26470 net.cpp:106] Creating Layer conv4_5_1x1_reduce/bn
I0316 22:50:06.219277 26470 net.cpp:454] conv4_5_1x1_reduce/bn <- conv4_5_1x1_reduce
I0316 22:50:06.219282 26470 net.cpp:397] conv4_5_1x1_reduce/bn -> conv4_5_1x1_reduce (in-place)
I0316 22:50:06.219440 26470 net.cpp:150] Setting up conv4_5_1x1_reduce/bn
I0316 22:50:06.219444 26470 net.cpp:157] Top shape: 1 256 60 60 (921600)
I0316 22:50:06.219446 26470 net.cpp:165] Memory required for data: 1264735232
I0316 22:50:06.219450 26470 layer_factory.hpp:77] Creating layer conv4_5_1x1_reduce/relu
I0316 22:50:06.219455 26470 net.cpp:106] Creating Layer conv4_5_1x1_reduce/relu
I0316 22:50:06.219456 26470 net.cpp:454] conv4_5_1x1_reduce/relu <- conv4_5_1x1_reduce
I0316 22:50:06.219461 26470 net.cpp:397] conv4_5_1x1_reduce/relu -> conv4_5_1x1_reduce (in-place)
I0316 22:50:06.219465 26470 net.cpp:150] Setting up conv4_5_1x1_reduce/relu
I0316 22:50:06.219466 26470 net.cpp:157] Top shape: 1 256 60 60 (921600)
I0316 22:50:06.219467 26470 net.cpp:165] Memory required for data: 1268421632
I0316 22:50:06.219470 26470 layer_factory.hpp:77] Creating layer conv4_5_3x3
I0316 22:50:06.219476 26470 net.cpp:106] Creating Layer conv4_5_3x3
I0316 22:50:06.219477 26470 net.cpp:454] conv4_5_3x3 <- conv4_5_1x1_reduce
I0316 22:50:06.219480 26470 net.cpp:411] conv4_5_3x3 -> conv4_5_3x3
I0316 22:50:06.233157 26470 net.cpp:150] Setting up conv4_5_3x3
I0316 22:50:06.233227 26470 net.cpp:157] Top shape: 1 256 60 60 (921600)
I0316 22:50:06.233232 26470 net.cpp:165] Memory required for data: 1272108032
I0316 22:50:06.233249 26470 layer_factory.hpp:77] Creating layer conv4_5_3x3/bn
I0316 22:50:06.233275 26470 net.cpp:106] Creating Layer conv4_5_3x3/bn
I0316 22:50:06.233283 26470 net.cpp:454] conv4_5_3x3/bn <- conv4_5_3x3
I0316 22:50:06.233294 26470 net.cpp:397] conv4_5_3x3/bn -> conv4_5_3x3 (in-place)
I0316 22:50:06.233530 26470 net.cpp:150] Setting up conv4_5_3x3/bn
I0316 22:50:06.233536 26470 net.cpp:157] Top shape: 1 256 60 60 (921600)
I0316 22:50:06.233538 26470 net.cpp:165] Memory required for data: 1275794432
I0316 22:50:06.233546 26470 layer_factory.hpp:77] Creating layer conv4_5_3x3/relu
I0316 22:50:06.233554 26470 net.cpp:106] Creating Layer conv4_5_3x3/relu
I0316 22:50:06.233557 26470 net.cpp:454] conv4_5_3x3/relu <- conv4_5_3x3
I0316 22:50:06.233561 26470 net.cpp:397] conv4_5_3x3/relu -> conv4_5_3x3 (in-place)
I0316 22:50:06.233567 26470 net.cpp:150] Setting up conv4_5_3x3/relu
I0316 22:50:06.233593 26470 net.cpp:157] Top shape: 1 256 60 60 (921600)
I0316 22:50:06.233597 26470 net.cpp:165] Memory required for data: 1279480832
I0316 22:50:06.233599 26470 layer_factory.hpp:77] Creating layer conv4_5_1x1_increase
I0316 22:50:06.233611 26470 net.cpp:106] Creating Layer conv4_5_1x1_increase
I0316 22:50:06.233615 26470 net.cpp:454] conv4_5_1x1_increase <- conv4_5_3x3
I0316 22:50:06.233621 26470 net.cpp:411] conv4_5_1x1_increase -> conv4_5_1x1_increase
I0316 22:50:06.240000 26470 net.cpp:150] Setting up conv4_5_1x1_increase
I0316 22:50:06.240015 26470 net.cpp:157] Top shape: 1 1024 60 60 (3686400)
I0316 22:50:06.240016 26470 net.cpp:165] Memory required for data: 1294226432
I0316 22:50:06.240025 26470 layer_factory.hpp:77] Creating layer conv4_5_1x1_increase/bn
I0316 22:50:06.240039 26470 net.cpp:106] Creating Layer conv4_5_1x1_increase/bn
I0316 22:50:06.240061 26470 net.cpp:454] conv4_5_1x1_increase/bn <- conv4_5_1x1_increase
I0316 22:50:06.240068 26470 net.cpp:397] conv4_5_1x1_increase/bn -> conv4_5_1x1_increase (in-place)
I0316 22:50:06.240218 26470 net.cpp:150] Setting up conv4_5_1x1_increase/bn
I0316 22:50:06.240223 26470 net.cpp:157] Top shape: 1 1024 60 60 (3686400)
I0316 22:50:06.240226 26470 net.cpp:165] Memory required for data: 1308972032
I0316 22:50:06.240233 26470 layer_factory.hpp:77] Creating layer conv4_5
I0316 22:50:06.240239 26470 net.cpp:106] Creating Layer conv4_5
I0316 22:50:06.240242 26470 net.cpp:454] conv4_5 <- conv4_4_conv4_4/relu_0_split_1
I0316 22:50:06.240247 26470 net.cpp:454] conv4_5 <- conv4_5_1x1_increase
I0316 22:50:06.240252 26470 net.cpp:411] conv4_5 -> conv4_5
I0316 22:50:06.240272 26470 net.cpp:150] Setting up conv4_5
I0316 22:50:06.240276 26470 net.cpp:157] Top shape: 1 1024 60 60 (3686400)
I0316 22:50:06.240278 26470 net.cpp:165] Memory required for data: 1323717632
I0316 22:50:06.240281 26470 layer_factory.hpp:77] Creating layer conv4_5/relu
I0316 22:50:06.240288 26470 net.cpp:106] Creating Layer conv4_5/relu
I0316 22:50:06.240290 26470 net.cpp:454] conv4_5/relu <- conv4_5
I0316 22:50:06.240293 26470 net.cpp:397] conv4_5/relu -> conv4_5 (in-place)
I0316 22:50:06.240299 26470 net.cpp:150] Setting up conv4_5/relu
I0316 22:50:06.240303 26470 net.cpp:157] Top shape: 1 1024 60 60 (3686400)
I0316 22:50:06.240306 26470 net.cpp:165] Memory required for data: 1338463232
I0316 22:50:06.240309 26470 layer_factory.hpp:77] Creating layer conv4_5_conv4_5/relu_0_split
I0316 22:50:06.240314 26470 net.cpp:106] Creating Layer conv4_5_conv4_5/relu_0_split
I0316 22:50:06.240317 26470 net.cpp:454] conv4_5_conv4_5/relu_0_split <- conv4_5
I0316 22:50:06.240322 26470 net.cpp:411] conv4_5_conv4_5/relu_0_split -> conv4_5_conv4_5/relu_0_split_0
I0316 22:50:06.240327 26470 net.cpp:411] conv4_5_conv4_5/relu_0_split -> conv4_5_conv4_5/relu_0_split_1
I0316 22:50:06.240350 26470 net.cpp:150] Setting up conv4_5_conv4_5/relu_0_split
I0316 22:50:06.240355 26470 net.cpp:157] Top shape: 1 1024 60 60 (3686400)
I0316 22:50:06.240358 26470 net.cpp:157] Top shape: 1 1024 60 60 (3686400)
I0316 22:50:06.240360 26470 net.cpp:165] Memory required for data: 1367954432
I0316 22:50:06.240363 26470 layer_factory.hpp:77] Creating layer conv4_6_1x1_reduce
I0316 22:50:06.240373 26470 net.cpp:106] Creating Layer conv4_6_1x1_reduce
I0316 22:50:06.240376 26470 net.cpp:454] conv4_6_1x1_reduce <- conv4_5_conv4_5/relu_0_split_0
I0316 22:50:06.240381 26470 net.cpp:411] conv4_6_1x1_reduce -> conv4_6_1x1_reduce
I0316 22:50:06.246031 26470 net.cpp:150] Setting up conv4_6_1x1_reduce
I0316 22:50:06.246043 26470 net.cpp:157] Top shape: 1 256 60 60 (921600)
I0316 22:50:06.246047 26470 net.cpp:165] Memory required for data: 1371640832
I0316 22:50:06.246053 26470 layer_factory.hpp:77] Creating layer conv4_6_1x1_reduce/bn
I0316 22:50:06.246062 26470 net.cpp:106] Creating Layer conv4_6_1x1_reduce/bn
I0316 22:50:06.246067 26470 net.cpp:454] conv4_6_1x1_reduce/bn <- conv4_6_1x1_reduce
I0316 22:50:06.246074 26470 net.cpp:397] conv4_6_1x1_reduce/bn -> conv4_6_1x1_reduce (in-place)
I0316 22:50:06.246208 26470 net.cpp:150] Setting up conv4_6_1x1_reduce/bn
I0316 22:50:06.246213 26470 net.cpp:157] Top shape: 1 256 60 60 (921600)
I0316 22:50:06.246217 26470 net.cpp:165] Memory required for data: 1375327232
I0316 22:50:06.246222 26470 layer_factory.hpp:77] Creating layer conv4_6_1x1_reduce/relu
I0316 22:50:06.246229 26470 net.cpp:106] Creating Layer conv4_6_1x1_reduce/relu
I0316 22:50:06.246232 26470 net.cpp:454] conv4_6_1x1_reduce/relu <- conv4_6_1x1_reduce
I0316 22:50:06.246237 26470 net.cpp:397] conv4_6_1x1_reduce/relu -> conv4_6_1x1_reduce (in-place)
I0316 22:50:06.246240 26470 net.cpp:150] Setting up conv4_6_1x1_reduce/relu
I0316 22:50:06.246245 26470 net.cpp:157] Top shape: 1 256 60 60 (921600)
I0316 22:50:06.246248 26470 net.cpp:165] Memory required for data: 1379013632
I0316 22:50:06.246251 26470 layer_factory.hpp:77] Creating layer conv4_6_3x3
I0316 22:50:06.246258 26470 net.cpp:106] Creating Layer conv4_6_3x3
I0316 22:50:06.246261 26470 net.cpp:454] conv4_6_3x3 <- conv4_6_1x1_reduce
I0316 22:50:06.246266 26470 net.cpp:411] conv4_6_3x3 -> conv4_6_3x3
I0316 22:50:06.260537 26470 net.cpp:150] Setting up conv4_6_3x3
I0316 22:50:06.260700 26470 net.cpp:157] Top shape: 1 256 60 60 (921600)
I0316 22:50:06.260725 26470 net.cpp:165] Memory required for data: 1382700032
I0316 22:50:06.260746 26470 layer_factory.hpp:77] Creating layer conv4_6_3x3/bn
I0316 22:50:06.260777 26470 net.cpp:106] Creating Layer conv4_6_3x3/bn
I0316 22:50:06.260792 26470 net.cpp:454] conv4_6_3x3/bn <- conv4_6_3x3
I0316 22:50:06.260807 26470 net.cpp:397] conv4_6_3x3/bn -> conv4_6_3x3 (in-place)
I0316 22:50:06.261049 26470 net.cpp:150] Setting up conv4_6_3x3/bn
I0316 22:50:06.261067 26470 net.cpp:157] Top shape: 1 256 60 60 (921600)
I0316 22:50:06.261076 26470 net.cpp:165] Memory required for data: 1386386432
I0316 22:50:06.261090 26470 layer_factory.hpp:77] Creating layer conv4_6_3x3/relu
I0316 22:50:06.261103 26470 net.cpp:106] Creating Layer conv4_6_3x3/relu
I0316 22:50:06.261113 26470 net.cpp:454] conv4_6_3x3/relu <- conv4_6_3x3
I0316 22:50:06.261123 26470 net.cpp:397] conv4_6_3x3/relu -> conv4_6_3x3 (in-place)
I0316 22:50:06.261135 26470 net.cpp:150] Setting up conv4_6_3x3/relu
I0316 22:50:06.261145 26470 net.cpp:157] Top shape: 1 256 60 60 (921600)
I0316 22:50:06.261155 26470 net.cpp:165] Memory required for data: 1390072832
I0316 22:50:06.261163 26470 layer_factory.hpp:77] Creating layer conv4_6_1x1_increase
I0316 22:50:06.261200 26470 net.cpp:106] Creating Layer conv4_6_1x1_increase
I0316 22:50:06.261211 26470 net.cpp:454] conv4_6_1x1_increase <- conv4_6_3x3
I0316 22:50:06.261224 26470 net.cpp:411] conv4_6_1x1_increase -> conv4_6_1x1_increase
I0316 22:50:06.270884 26470 net.cpp:150] Setting up conv4_6_1x1_increase
I0316 22:50:06.271034 26470 net.cpp:157] Top shape: 1 1024 60 60 (3686400)
I0316 22:50:06.271054 26470 net.cpp:165] Memory required for data: 1404818432
I0316 22:50:06.271090 26470 layer_factory.hpp:77] Creating layer conv4_6_1x1_increase/bn
I0316 22:50:06.271131 26470 net.cpp:106] Creating Layer conv4_6_1x1_increase/bn
I0316 22:50:06.271149 26470 net.cpp:454] conv4_6_1x1_increase/bn <- conv4_6_1x1_increase
I0316 22:50:06.271167 26470 net.cpp:397] conv4_6_1x1_increase/bn -> conv4_6_1x1_increase (in-place)
I0316 22:50:06.271438 26470 net.cpp:150] Setting up conv4_6_1x1_increase/bn
I0316 22:50:06.271456 26470 net.cpp:157] Top shape: 1 1024 60 60 (3686400)
I0316 22:50:06.271464 26470 net.cpp:165] Memory required for data: 1419564032
I0316 22:50:06.271476 26470 layer_factory.hpp:77] Creating layer conv4_6
I0316 22:50:06.271492 26470 net.cpp:106] Creating Layer conv4_6
I0316 22:50:06.271500 26470 net.cpp:454] conv4_6 <- conv4_5_conv4_5/relu_0_split_1
I0316 22:50:06.271510 26470 net.cpp:454] conv4_6 <- conv4_6_1x1_increase
I0316 22:50:06.271520 26470 net.cpp:411] conv4_6 -> conv4_6
I0316 22:50:06.271551 26470 net.cpp:150] Setting up conv4_6
I0316 22:50:06.271564 26470 net.cpp:157] Top shape: 1 1024 60 60 (3686400)
I0316 22:50:06.271571 26470 net.cpp:165] Memory required for data: 1434309632
I0316 22:50:06.271580 26470 layer_factory.hpp:77] Creating layer conv4_6/relu
I0316 22:50:06.271592 26470 net.cpp:106] Creating Layer conv4_6/relu
I0316 22:50:06.271602 26470 net.cpp:454] conv4_6/relu <- conv4_6
I0316 22:50:06.271611 26470 net.cpp:397] conv4_6/relu -> conv4_6 (in-place)
I0316 22:50:06.271623 26470 net.cpp:150] Setting up conv4_6/relu
I0316 22:50:06.271632 26470 net.cpp:157] Top shape: 1 1024 60 60 (3686400)
I0316 22:50:06.271641 26470 net.cpp:165] Memory required for data: 1449055232
I0316 22:50:06.271649 26470 layer_factory.hpp:77] Creating layer conv4_6_conv4_6/relu_0_split
I0316 22:50:06.271661 26470 net.cpp:106] Creating Layer conv4_6_conv4_6/relu_0_split
I0316 22:50:06.271669 26470 net.cpp:454] conv4_6_conv4_6/relu_0_split <- conv4_6
I0316 22:50:06.271680 26470 net.cpp:411] conv4_6_conv4_6/relu_0_split -> conv4_6_conv4_6/relu_0_split_0
I0316 22:50:06.271692 26470 net.cpp:411] conv4_6_conv4_6/relu_0_split -> conv4_6_conv4_6/relu_0_split_1
I0316 22:50:06.271730 26470 net.cpp:150] Setting up conv4_6_conv4_6/relu_0_split
I0316 22:50:06.271736 26470 net.cpp:157] Top shape: 1 1024 60 60 (3686400)
I0316 22:50:06.271740 26470 net.cpp:157] Top shape: 1 1024 60 60 (3686400)
I0316 22:50:06.271742 26470 net.cpp:165] Memory required for data: 1478546432
I0316 22:50:06.271745 26470 layer_factory.hpp:77] Creating layer conv5_1_1x1_reduce
I0316 22:50:06.271757 26470 net.cpp:106] Creating Layer conv5_1_1x1_reduce
I0316 22:50:06.271761 26470 net.cpp:454] conv5_1_1x1_reduce <- conv4_6_conv4_6/relu_0_split_0
I0316 22:50:06.271766 26470 net.cpp:411] conv5_1_1x1_reduce -> conv5_1_1x1_reduce
I0316 22:50:06.283720 26470 net.cpp:150] Setting up conv5_1_1x1_reduce
I0316 22:50:06.283748 26470 net.cpp:157] Top shape: 1 512 60 60 (1843200)
I0316 22:50:06.283752 26470 net.cpp:165] Memory required for data: 1485919232
I0316 22:50:06.283761 26470 layer_factory.hpp:77] Creating layer conv5_1_1x1_reduce/bn
I0316 22:50:06.283776 26470 net.cpp:106] Creating Layer conv5_1_1x1_reduce/bn
I0316 22:50:06.283782 26470 net.cpp:454] conv5_1_1x1_reduce/bn <- conv5_1_1x1_reduce
I0316 22:50:06.283792 26470 net.cpp:397] conv5_1_1x1_reduce/bn -> conv5_1_1x1_reduce (in-place)
I0316 22:50:06.283972 26470 net.cpp:150] Setting up conv5_1_1x1_reduce/bn
I0316 22:50:06.283977 26470 net.cpp:157] Top shape: 1 512 60 60 (1843200)
I0316 22:50:06.283980 26470 net.cpp:165] Memory required for data: 1493292032
I0316 22:50:06.283987 26470 layer_factory.hpp:77] Creating layer conv5_1_1x1_reduce/relu
I0316 22:50:06.283993 26470 net.cpp:106] Creating Layer conv5_1_1x1_reduce/relu
I0316 22:50:06.283996 26470 net.cpp:454] conv5_1_1x1_reduce/relu <- conv5_1_1x1_reduce
I0316 22:50:06.283999 26470 net.cpp:397] conv5_1_1x1_reduce/relu -> conv5_1_1x1_reduce (in-place)
I0316 22:50:06.284004 26470 net.cpp:150] Setting up conv5_1_1x1_reduce/relu
I0316 22:50:06.284009 26470 net.cpp:157] Top shape: 1 512 60 60 (1843200)
I0316 22:50:06.284013 26470 net.cpp:165] Memory required for data: 1500664832
I0316 22:50:06.284015 26470 layer_factory.hpp:77] Creating layer conv5_1_3x3
I0316 22:50:06.284025 26470 net.cpp:106] Creating Layer conv5_1_3x3
I0316 22:50:06.284029 26470 net.cpp:454] conv5_1_3x3 <- conv5_1_1x1_reduce
I0316 22:50:06.284034 26470 net.cpp:411] conv5_1_3x3 -> conv5_1_3x3
I0316 22:50:06.341411 26470 net.cpp:150] Setting up conv5_1_3x3
I0316 22:50:06.341429 26470 net.cpp:157] Top shape: 1 512 60 60 (1843200)
I0316 22:50:06.341433 26470 net.cpp:165] Memory required for data: 1508037632
I0316 22:50:06.341440 26470 layer_factory.hpp:77] Creating layer conv5_1_3x3/bn
I0316 22:50:06.341454 26470 net.cpp:106] Creating Layer conv5_1_3x3/bn
I0316 22:50:06.341459 26470 net.cpp:454] conv5_1_3x3/bn <- conv5_1_3x3
I0316 22:50:06.341467 26470 net.cpp:397] conv5_1_3x3/bn -> conv5_1_3x3 (in-place)
I0316 22:50:06.341639 26470 net.cpp:150] Setting up conv5_1_3x3/bn
I0316 22:50:06.341644 26470 net.cpp:157] Top shape: 1 512 60 60 (1843200)
I0316 22:50:06.341646 26470 net.cpp:165] Memory required for data: 1515410432
I0316 22:50:06.341653 26470 layer_factory.hpp:77] Creating layer conv5_1_3x3/relu
I0316 22:50:06.341660 26470 net.cpp:106] Creating Layer conv5_1_3x3/relu
I0316 22:50:06.341661 26470 net.cpp:454] conv5_1_3x3/relu <- conv5_1_3x3
I0316 22:50:06.341666 26470 net.cpp:397] conv5_1_3x3/relu -> conv5_1_3x3 (in-place)
I0316 22:50:06.341672 26470 net.cpp:150] Setting up conv5_1_3x3/relu
I0316 22:50:06.341676 26470 net.cpp:157] Top shape: 1 512 60 60 (1843200)
I0316 22:50:06.341680 26470 net.cpp:165] Memory required for data: 1522783232
I0316 22:50:06.341681 26470 layer_factory.hpp:77] Creating layer conv5_1_1x1_increase
I0316 22:50:06.341692 26470 net.cpp:106] Creating Layer conv5_1_1x1_increase
I0316 22:50:06.341696 26470 net.cpp:454] conv5_1_1x1_increase <- conv5_1_3x3
I0316 22:50:06.341701 26470 net.cpp:411] conv5_1_1x1_increase -> conv5_1_1x1_increase
I0316 22:50:06.364671 26470 net.cpp:150] Setting up conv5_1_1x1_increase
I0316 22:50:06.364689 26470 net.cpp:157] Top shape: 1 2048 60 60 (7372800)
I0316 22:50:06.364692 26470 net.cpp:165] Memory required for data: 1552274432
I0316 22:50:06.364701 26470 layer_factory.hpp:77] Creating layer conv5_1_1x1_increase/bn
I0316 22:50:06.364712 26470 net.cpp:106] Creating Layer conv5_1_1x1_increase/bn
I0316 22:50:06.364717 26470 net.cpp:454] conv5_1_1x1_increase/bn <- conv5_1_1x1_increase
I0316 22:50:06.364727 26470 net.cpp:397] conv5_1_1x1_increase/bn -> conv5_1_1x1_increase (in-place)
I0316 22:50:06.364897 26470 net.cpp:150] Setting up conv5_1_1x1_increase/bn
I0316 22:50:06.364902 26470 net.cpp:157] Top shape: 1 2048 60 60 (7372800)
I0316 22:50:06.364905 26470 net.cpp:165] Memory required for data: 1581765632
I0316 22:50:06.364912 26470 layer_factory.hpp:77] Creating layer conv5_1_1x1_proj
I0316 22:50:06.364920 26470 net.cpp:106] Creating Layer conv5_1_1x1_proj
I0316 22:50:06.364923 26470 net.cpp:454] conv5_1_1x1_proj <- conv4_6_conv4_6/relu_0_split_1
I0316 22:50:06.364929 26470 net.cpp:411] conv5_1_1x1_proj -> conv5_1_1x1_proj
I0316 22:50:06.417839 26470 net.cpp:150] Setting up conv5_1_1x1_proj
I0316 22:50:06.417886 26470 net.cpp:157] Top shape: 1 2048 60 60 (7372800)
I0316 22:50:06.417891 26470 net.cpp:165] Memory required for data: 1611256832
I0316 22:50:06.417908 26470 layer_factory.hpp:77] Creating layer conv5_1_1x1_proj/bn
I0316 22:50:06.417935 26470 net.cpp:106] Creating Layer conv5_1_1x1_proj/bn
I0316 22:50:06.417944 26470 net.cpp:454] conv5_1_1x1_proj/bn <- conv5_1_1x1_proj
I0316 22:50:06.417953 26470 net.cpp:397] conv5_1_1x1_proj/bn -> conv5_1_1x1_proj (in-place)
I0316 22:50:06.418165 26470 net.cpp:150] Setting up conv5_1_1x1_proj/bn
I0316 22:50:06.418172 26470 net.cpp:157] Top shape: 1 2048 60 60 (7372800)
I0316 22:50:06.418174 26470 net.cpp:165] Memory required for data: 1640748032
I0316 22:50:06.418182 26470 layer_factory.hpp:77] Creating layer conv5_1
I0316 22:50:06.418189 26470 net.cpp:106] Creating Layer conv5_1
I0316 22:50:06.418192 26470 net.cpp:454] conv5_1 <- conv5_1_1x1_proj
I0316 22:50:06.418195 26470 net.cpp:454] conv5_1 <- conv5_1_1x1_increase
I0316 22:50:06.418203 26470 net.cpp:411] conv5_1 -> conv5_1
I0316 22:50:06.418226 26470 net.cpp:150] Setting up conv5_1
I0316 22:50:06.418231 26470 net.cpp:157] Top shape: 1 2048 60 60 (7372800)
I0316 22:50:06.418234 26470 net.cpp:165] Memory required for data: 1670239232
I0316 22:50:06.418237 26470 layer_factory.hpp:77] Creating layer conv5_1/relu
I0316 22:50:06.418244 26470 net.cpp:106] Creating Layer conv5_1/relu
I0316 22:50:06.418247 26470 net.cpp:454] conv5_1/relu <- conv5_1
I0316 22:50:06.418251 26470 net.cpp:397] conv5_1/relu -> conv5_1 (in-place)
I0316 22:50:06.418256 26470 net.cpp:150] Setting up conv5_1/relu
I0316 22:50:06.418261 26470 net.cpp:157] Top shape: 1 2048 60 60 (7372800)
I0316 22:50:06.418263 26470 net.cpp:165] Memory required for data: 1699730432
I0316 22:50:06.418267 26470 layer_factory.hpp:77] Creating layer conv5_1_conv5_1/relu_0_split
I0316 22:50:06.418272 26470 net.cpp:106] Creating Layer conv5_1_conv5_1/relu_0_split
I0316 22:50:06.418275 26470 net.cpp:454] conv5_1_conv5_1/relu_0_split <- conv5_1
I0316 22:50:06.418283 26470 net.cpp:411] conv5_1_conv5_1/relu_0_split -> conv5_1_conv5_1/relu_0_split_0
I0316 22:50:06.418289 26470 net.cpp:411] conv5_1_conv5_1/relu_0_split -> conv5_1_conv5_1/relu_0_split_1
I0316 22:50:06.418316 26470 net.cpp:150] Setting up conv5_1_conv5_1/relu_0_split
I0316 22:50:06.418321 26470 net.cpp:157] Top shape: 1 2048 60 60 (7372800)
I0316 22:50:06.418324 26470 net.cpp:157] Top shape: 1 2048 60 60 (7372800)
I0316 22:50:06.418328 26470 net.cpp:165] Memory required for data: 1758712832
I0316 22:50:06.418330 26470 layer_factory.hpp:77] Creating layer conv5_2_1x1_reduce
I0316 22:50:06.418339 26470 net.cpp:106] Creating Layer conv5_2_1x1_reduce
I0316 22:50:06.418344 26470 net.cpp:454] conv5_2_1x1_reduce <- conv5_1_conv5_1/relu_0_split_0
I0316 22:50:06.418349 26470 net.cpp:411] conv5_2_1x1_reduce -> conv5_2_1x1_reduce
I0316 22:50:06.442193 26470 net.cpp:150] Setting up conv5_2_1x1_reduce
I0316 22:50:06.442210 26470 net.cpp:157] Top shape: 1 512 60 60 (1843200)
I0316 22:50:06.442214 26470 net.cpp:165] Memory required for data: 1766085632
I0316 22:50:06.442222 26470 layer_factory.hpp:77] Creating layer conv5_2_1x1_reduce/bn
I0316 22:50:06.442235 26470 net.cpp:106] Creating Layer conv5_2_1x1_reduce/bn
I0316 22:50:06.442241 26470 net.cpp:454] conv5_2_1x1_reduce/bn <- conv5_2_1x1_reduce
I0316 22:50:06.442246 26470 net.cpp:397] conv5_2_1x1_reduce/bn -> conv5_2_1x1_reduce (in-place)
I0316 22:50:06.442417 26470 net.cpp:150] Setting up conv5_2_1x1_reduce/bn
I0316 22:50:06.442422 26470 net.cpp:157] Top shape: 1 512 60 60 (1843200)
I0316 22:50:06.442425 26470 net.cpp:165] Memory required for data: 1773458432
I0316 22:50:06.442432 26470 layer_factory.hpp:77] Creating layer conv5_2_1x1_reduce/relu
I0316 22:50:06.442438 26470 net.cpp:106] Creating Layer conv5_2_1x1_reduce/relu
I0316 22:50:06.442441 26470 net.cpp:454] conv5_2_1x1_reduce/relu <- conv5_2_1x1_reduce
I0316 22:50:06.442445 26470 net.cpp:397] conv5_2_1x1_reduce/relu -> conv5_2_1x1_reduce (in-place)
I0316 22:50:06.442451 26470 net.cpp:150] Setting up conv5_2_1x1_reduce/relu
I0316 22:50:06.442456 26470 net.cpp:157] Top shape: 1 512 60 60 (1843200)
I0316 22:50:06.442458 26470 net.cpp:165] Memory required for data: 1780831232
I0316 22:50:06.442461 26470 layer_factory.hpp:77] Creating layer conv5_2_3x3
I0316 22:50:06.442471 26470 net.cpp:106] Creating Layer conv5_2_3x3
I0316 22:50:06.442474 26470 net.cpp:454] conv5_2_3x3 <- conv5_2_1x1_reduce
I0316 22:50:06.442481 26470 net.cpp:411] conv5_2_3x3 -> conv5_2_3x3
I0316 22:50:06.499810 26470 net.cpp:150] Setting up conv5_2_3x3
I0316 22:50:06.499853 26470 net.cpp:157] Top shape: 1 512 60 60 (1843200)
I0316 22:50:06.499857 26470 net.cpp:165] Memory required for data: 1788204032
I0316 22:50:06.499871 26470 layer_factory.hpp:77] Creating layer conv5_2_3x3/bn
I0316 22:50:06.499894 26470 net.cpp:106] Creating Layer conv5_2_3x3/bn
I0316 22:50:06.499904 26470 net.cpp:454] conv5_2_3x3/bn <- conv5_2_3x3
I0316 22:50:06.499913 26470 net.cpp:397] conv5_2_3x3/bn -> conv5_2_3x3 (in-place)
I0316 22:50:06.500169 26470 net.cpp:150] Setting up conv5_2_3x3/bn
I0316 22:50:06.500176 26470 net.cpp:157] Top shape: 1 512 60 60 (1843200)
I0316 22:50:06.500178 26470 net.cpp:165] Memory required for data: 1795576832
I0316 22:50:06.500186 26470 layer_factory.hpp:77] Creating layer conv5_2_3x3/relu
I0316 22:50:06.500200 26470 net.cpp:106] Creating Layer conv5_2_3x3/relu
I0316 22:50:06.500203 26470 net.cpp:454] conv5_2_3x3/relu <- conv5_2_3x3
I0316 22:50:06.500207 26470 net.cpp:397] conv5_2_3x3/relu -> conv5_2_3x3 (in-place)
I0316 22:50:06.500214 26470 net.cpp:150] Setting up conv5_2_3x3/relu
I0316 22:50:06.500218 26470 net.cpp:157] Top shape: 1 512 60 60 (1843200)
I0316 22:50:06.500221 26470 net.cpp:165] Memory required for data: 1802949632
I0316 22:50:06.500224 26470 layer_factory.hpp:77] Creating layer conv5_2_1x1_increase
I0316 22:50:06.500234 26470 net.cpp:106] Creating Layer conv5_2_1x1_increase
I0316 22:50:06.500237 26470 net.cpp:454] conv5_2_1x1_increase <- conv5_2_3x3
I0316 22:50:06.500242 26470 net.cpp:411] conv5_2_1x1_increase -> conv5_2_1x1_increase
I0316 22:50:06.524221 26470 net.cpp:150] Setting up conv5_2_1x1_increase
I0316 22:50:06.524243 26470 net.cpp:157] Top shape: 1 2048 60 60 (7372800)
I0316 22:50:06.524246 26470 net.cpp:165] Memory required for data: 1832440832
I0316 22:50:06.524255 26470 layer_factory.hpp:77] Creating layer conv5_2_1x1_increase/bn
I0316 22:50:06.524269 26470 net.cpp:106] Creating Layer conv5_2_1x1_increase/bn
I0316 22:50:06.524276 26470 net.cpp:454] conv5_2_1x1_increase/bn <- conv5_2_1x1_increase
I0316 22:50:06.524281 26470 net.cpp:397] conv5_2_1x1_increase/bn -> conv5_2_1x1_increase (in-place)
I0316 22:50:06.524464 26470 net.cpp:150] Setting up conv5_2_1x1_increase/bn
I0316 22:50:06.524471 26470 net.cpp:157] Top shape: 1 2048 60 60 (7372800)
I0316 22:50:06.524472 26470 net.cpp:165] Memory required for data: 1861932032
I0316 22:50:06.524509 26470 layer_factory.hpp:77] Creating layer conv5_2
I0316 22:50:06.524518 26470 net.cpp:106] Creating Layer conv5_2
I0316 22:50:06.524523 26470 net.cpp:454] conv5_2 <- conv5_1_conv5_1/relu_0_split_1
I0316 22:50:06.524528 26470 net.cpp:454] conv5_2 <- conv5_2_1x1_increase
I0316 22:50:06.524533 26470 net.cpp:411] conv5_2 -> conv5_2
I0316 22:50:06.524554 26470 net.cpp:150] Setting up conv5_2
I0316 22:50:06.524559 26470 net.cpp:157] Top shape: 1 2048 60 60 (7372800)
I0316 22:50:06.524562 26470 net.cpp:165] Memory required for data: 1891423232
I0316 22:50:06.524564 26470 layer_factory.hpp:77] Creating layer conv5_2/relu
I0316 22:50:06.524569 26470 net.cpp:106] Creating Layer conv5_2/relu
I0316 22:50:06.524574 26470 net.cpp:454] conv5_2/relu <- conv5_2
I0316 22:50:06.524576 26470 net.cpp:397] conv5_2/relu -> conv5_2 (in-place)
I0316 22:50:06.524581 26470 net.cpp:150] Setting up conv5_2/relu
I0316 22:50:06.524586 26470 net.cpp:157] Top shape: 1 2048 60 60 (7372800)
I0316 22:50:06.524588 26470 net.cpp:165] Memory required for data: 1920914432
I0316 22:50:06.524591 26470 layer_factory.hpp:77] Creating layer conv5_2_conv5_2/relu_0_split
I0316 22:50:06.524595 26470 net.cpp:106] Creating Layer conv5_2_conv5_2/relu_0_split
I0316 22:50:06.524598 26470 net.cpp:454] conv5_2_conv5_2/relu_0_split <- conv5_2
I0316 22:50:06.524605 26470 net.cpp:411] conv5_2_conv5_2/relu_0_split -> conv5_2_conv5_2/relu_0_split_0
I0316 22:50:06.524610 26470 net.cpp:411] conv5_2_conv5_2/relu_0_split -> conv5_2_conv5_2/relu_0_split_1
I0316 22:50:06.524636 26470 net.cpp:150] Setting up conv5_2_conv5_2/relu_0_split
I0316 22:50:06.524641 26470 net.cpp:157] Top shape: 1 2048 60 60 (7372800)
I0316 22:50:06.524644 26470 net.cpp:157] Top shape: 1 2048 60 60 (7372800)
I0316 22:50:06.524647 26470 net.cpp:165] Memory required for data: 1979896832
I0316 22:50:06.524651 26470 layer_factory.hpp:77] Creating layer conv5_3_1x1_reduce
I0316 22:50:06.524658 26470 net.cpp:106] Creating Layer conv5_3_1x1_reduce
I0316 22:50:06.524660 26470 net.cpp:454] conv5_3_1x1_reduce <- conv5_2_conv5_2/relu_0_split_0
I0316 22:50:06.524665 26470 net.cpp:411] conv5_3_1x1_reduce -> conv5_3_1x1_reduce
I0316 22:50:06.552433 26470 net.cpp:150] Setting up conv5_3_1x1_reduce
I0316 22:50:06.552475 26470 net.cpp:157] Top shape: 1 512 60 60 (1843200)
I0316 22:50:06.552480 26470 net.cpp:165] Memory required for data: 1987269632
I0316 22:50:06.552496 26470 layer_factory.hpp:77] Creating layer conv5_3_1x1_reduce/bn
I0316 22:50:06.552525 26470 net.cpp:106] Creating Layer conv5_3_1x1_reduce/bn
I0316 22:50:06.552534 26470 net.cpp:454] conv5_3_1x1_reduce/bn <- conv5_3_1x1_reduce
I0316 22:50:06.552546 26470 net.cpp:397] conv5_3_1x1_reduce/bn -> conv5_3_1x1_reduce (in-place)
I0316 22:50:06.552762 26470 net.cpp:150] Setting up conv5_3_1x1_reduce/bn
I0316 22:50:06.552768 26470 net.cpp:157] Top shape: 1 512 60 60 (1843200)
I0316 22:50:06.552770 26470 net.cpp:165] Memory required for data: 1994642432
I0316 22:50:06.552778 26470 layer_factory.hpp:77] Creating layer conv5_3_1x1_reduce/relu
I0316 22:50:06.552785 26470 net.cpp:106] Creating Layer conv5_3_1x1_reduce/relu
I0316 22:50:06.552789 26470 net.cpp:454] conv5_3_1x1_reduce/relu <- conv5_3_1x1_reduce
I0316 22:50:06.552793 26470 net.cpp:397] conv5_3_1x1_reduce/relu -> conv5_3_1x1_reduce (in-place)
I0316 22:50:06.552798 26470 net.cpp:150] Setting up conv5_3_1x1_reduce/relu
I0316 22:50:06.552804 26470 net.cpp:157] Top shape: 1 512 60 60 (1843200)
I0316 22:50:06.552806 26470 net.cpp:165] Memory required for data: 2002015232
I0316 22:50:06.552809 26470 layer_factory.hpp:77] Creating layer conv5_3_3x3
I0316 22:50:06.552821 26470 net.cpp:106] Creating Layer conv5_3_3x3
I0316 22:50:06.552824 26470 net.cpp:454] conv5_3_3x3 <- conv5_3_1x1_reduce
I0316 22:50:06.552830 26470 net.cpp:411] conv5_3_3x3 -> conv5_3_3x3
I0316 22:50:06.605957 26470 net.cpp:150] Setting up conv5_3_3x3
I0316 22:50:06.605981 26470 net.cpp:157] Top shape: 1 512 60 60 (1843200)
I0316 22:50:06.605984 26470 net.cpp:165] Memory required for data: 2009388032
I0316 22:50:06.605991 26470 layer_factory.hpp:77] Creating layer conv5_3_3x3/bn
I0316 22:50:06.606009 26470 net.cpp:106] Creating Layer conv5_3_3x3/bn
I0316 22:50:06.606012 26470 net.cpp:454] conv5_3_3x3/bn <- conv5_3_3x3
I0316 22:50:06.606019 26470 net.cpp:397] conv5_3_3x3/bn -> conv5_3_3x3 (in-place)
I0316 22:50:06.606199 26470 net.cpp:150] Setting up conv5_3_3x3/bn
I0316 22:50:06.606205 26470 net.cpp:157] Top shape: 1 512 60 60 (1843200)
I0316 22:50:06.606207 26470 net.cpp:165] Memory required for data: 2016760832
I0316 22:50:06.606214 26470 layer_factory.hpp:77] Creating layer conv5_3_3x3/relu
I0316 22:50:06.606220 26470 net.cpp:106] Creating Layer conv5_3_3x3/relu
I0316 22:50:06.606225 26470 net.cpp:454] conv5_3_3x3/relu <- conv5_3_3x3
I0316 22:50:06.606228 26470 net.cpp:397] conv5_3_3x3/relu -> conv5_3_3x3 (in-place)
I0316 22:50:06.606235 26470 net.cpp:150] Setting up conv5_3_3x3/relu
I0316 22:50:06.606238 26470 net.cpp:157] Top shape: 1 512 60 60 (1843200)
I0316 22:50:06.606241 26470 net.cpp:165] Memory required for data: 2024133632
I0316 22:50:06.606245 26470 layer_factory.hpp:77] Creating layer conv5_3_1x1_increase
I0316 22:50:06.606253 26470 net.cpp:106] Creating Layer conv5_3_1x1_increase
I0316 22:50:06.606256 26470 net.cpp:454] conv5_3_1x1_increase <- conv5_3_3x3
I0316 22:50:06.606261 26470 net.cpp:411] conv5_3_1x1_increase -> conv5_3_1x1_increase
I0316 22:50:06.634042 26470 net.cpp:150] Setting up conv5_3_1x1_increase
I0316 22:50:06.634080 26470 net.cpp:157] Top shape: 1 2048 60 60 (7372800)
I0316 22:50:06.634083 26470 net.cpp:165] Memory required for data: 2053624832
I0316 22:50:06.634094 26470 layer_factory.hpp:77] Creating layer conv5_3_1x1_increase/bn
I0316 22:50:06.634116 26470 net.cpp:106] Creating Layer conv5_3_1x1_increase/bn
I0316 22:50:06.634124 26470 net.cpp:454] conv5_3_1x1_increase/bn <- conv5_3_1x1_increase
I0316 22:50:06.634133 26470 net.cpp:397] conv5_3_1x1_increase/bn -> conv5_3_1x1_increase (in-place)
I0316 22:50:06.634340 26470 net.cpp:150] Setting up conv5_3_1x1_increase/bn
I0316 22:50:06.634346 26470 net.cpp:157] Top shape: 1 2048 60 60 (7372800)
I0316 22:50:06.634348 26470 net.cpp:165] Memory required for data: 2083116032
I0316 22:50:06.634356 26470 layer_factory.hpp:77] Creating layer conv5_3
I0316 22:50:06.634363 26470 net.cpp:106] Creating Layer conv5_3
I0316 22:50:06.634367 26470 net.cpp:454] conv5_3 <- conv5_2_conv5_2/relu_0_split_1
I0316 22:50:06.634371 26470 net.cpp:454] conv5_3 <- conv5_3_1x1_increase
I0316 22:50:06.634376 26470 net.cpp:411] conv5_3 -> conv5_3
I0316 22:50:06.634398 26470 net.cpp:150] Setting up conv5_3
I0316 22:50:06.634403 26470 net.cpp:157] Top shape: 1 2048 60 60 (7372800)
I0316 22:50:06.634405 26470 net.cpp:165] Memory required for data: 2112607232
I0316 22:50:06.634408 26470 layer_factory.hpp:77] Creating layer conv5_3/relu
I0316 22:50:06.634415 26470 net.cpp:106] Creating Layer conv5_3/relu
I0316 22:50:06.634419 26470 net.cpp:454] conv5_3/relu <- conv5_3
I0316 22:50:06.634423 26470 net.cpp:397] conv5_3/relu -> conv5_3 (in-place)
I0316 22:50:06.634430 26470 net.cpp:150] Setting up conv5_3/relu
I0316 22:50:06.634434 26470 net.cpp:157] Top shape: 1 2048 60 60 (7372800)
I0316 22:50:06.634438 26470 net.cpp:165] Memory required for data: 2142098432
I0316 22:50:06.634441 26470 layer_factory.hpp:77] Creating layer conv5_3_conv5_3/relu_0_split
I0316 22:50:06.634450 26470 net.cpp:106] Creating Layer conv5_3_conv5_3/relu_0_split
I0316 22:50:06.634454 26470 net.cpp:454] conv5_3_conv5_3/relu_0_split <- conv5_3
I0316 22:50:06.634459 26470 net.cpp:411] conv5_3_conv5_3/relu_0_split -> conv5_3_conv5_3/relu_0_split_0
I0316 22:50:06.634464 26470 net.cpp:411] conv5_3_conv5_3/relu_0_split -> conv5_3_conv5_3/relu_0_split_1
I0316 22:50:06.634470 26470 net.cpp:411] conv5_3_conv5_3/relu_0_split -> conv5_3_conv5_3/relu_0_split_2
I0316 22:50:06.634475 26470 net.cpp:411] conv5_3_conv5_3/relu_0_split -> conv5_3_conv5_3/relu_0_split_3
I0316 22:50:06.634481 26470 net.cpp:411] conv5_3_conv5_3/relu_0_split -> conv5_3_conv5_3/relu_0_split_4
I0316 22:50:06.634529 26470 net.cpp:150] Setting up conv5_3_conv5_3/relu_0_split
I0316 22:50:06.634534 26470 net.cpp:157] Top shape: 1 2048 60 60 (7372800)
I0316 22:50:06.634537 26470 net.cpp:157] Top shape: 1 2048 60 60 (7372800)
I0316 22:50:06.634541 26470 net.cpp:157] Top shape: 1 2048 60 60 (7372800)
I0316 22:50:06.634543 26470 net.cpp:157] Top shape: 1 2048 60 60 (7372800)
I0316 22:50:06.634547 26470 net.cpp:157] Top shape: 1 2048 60 60 (7372800)
I0316 22:50:06.634549 26470 net.cpp:165] Memory required for data: 2289554432
I0316 22:50:06.634552 26470 layer_factory.hpp:77] Creating layer conv5_3_pool1
I0316 22:50:06.634558 26470 net.cpp:106] Creating Layer conv5_3_pool1
I0316 22:50:06.634563 26470 net.cpp:454] conv5_3_pool1 <- conv5_3_conv5_3/relu_0_split_0
I0316 22:50:06.634567 26470 net.cpp:411] conv5_3_pool1 -> conv5_3_pool1
I0316 22:50:06.634582 26470 net.cpp:150] Setting up conv5_3_pool1
I0316 22:50:06.634585 26470 net.cpp:157] Top shape: 1 2048 1 1 (2048)
I0316 22:50:06.634588 26470 net.cpp:165] Memory required for data: 2289562624
I0316 22:50:06.634590 26470 layer_factory.hpp:77] Creating layer conv5_3_pool1_conv
I0316 22:50:06.634603 26470 net.cpp:106] Creating Layer conv5_3_pool1_conv
I0316 22:50:06.634606 26470 net.cpp:454] conv5_3_pool1_conv <- conv5_3_pool1
I0316 22:50:06.634611 26470 net.cpp:411] conv5_3_pool1_conv -> conv5_3_pool1_conv
I0316 22:50:06.658291 26470 net.cpp:150] Setting up conv5_3_pool1_conv
I0316 22:50:06.658308 26470 net.cpp:157] Top shape: 1 512 1 1 (512)
I0316 22:50:06.658310 26470 net.cpp:165] Memory required for data: 2289564672
I0316 22:50:06.658318 26470 layer_factory.hpp:77] Creating layer conv5_3_pool1_conv/bn
I0316 22:50:06.658329 26470 net.cpp:106] Creating Layer conv5_3_pool1_conv/bn
I0316 22:50:06.658334 26470 net.cpp:454] conv5_3_pool1_conv/bn <- conv5_3_pool1_conv
I0316 22:50:06.658350 26470 net.cpp:397] conv5_3_pool1_conv/bn -> conv5_3_pool1_conv (in-place)
I0316 22:50:06.658505 26470 net.cpp:150] Setting up conv5_3_pool1_conv/bn
I0316 22:50:06.658511 26470 net.cpp:157] Top shape: 1 512 1 1 (512)
I0316 22:50:06.658514 26470 net.cpp:165] Memory required for data: 2289566720
I0316 22:50:06.658520 26470 layer_factory.hpp:77] Creating layer conv5_3_pool1_conv/relu
I0316 22:50:06.658526 26470 net.cpp:106] Creating Layer conv5_3_pool1_conv/relu
I0316 22:50:06.658529 26470 net.cpp:454] conv5_3_pool1_conv/relu <- conv5_3_pool1_conv
I0316 22:50:06.658534 26470 net.cpp:397] conv5_3_pool1_conv/relu -> conv5_3_pool1_conv (in-place)
I0316 22:50:06.658538 26470 net.cpp:150] Setting up conv5_3_pool1_conv/relu
I0316 22:50:06.658542 26470 net.cpp:157] Top shape: 1 512 1 1 (512)
I0316 22:50:06.658545 26470 net.cpp:165] Memory required for data: 2289568768
I0316 22:50:06.658547 26470 layer_factory.hpp:77] Creating layer conv5_3_pool1_interp
I0316 22:50:06.658555 26470 net.cpp:106] Creating Layer conv5_3_pool1_interp
I0316 22:50:06.658557 26470 net.cpp:454] conv5_3_pool1_interp <- conv5_3_pool1_conv
I0316 22:50:06.658562 26470 net.cpp:411] conv5_3_pool1_interp -> conv5_3_pool1_interp
I0316 22:50:06.658581 26470 net.cpp:150] Setting up conv5_3_pool1_interp
I0316 22:50:06.658586 26470 net.cpp:157] Top shape: 1 512 60 60 (1843200)
I0316 22:50:06.658588 26470 net.cpp:165] Memory required for data: 2296941568
I0316 22:50:06.658591 26470 layer_factory.hpp:77] Creating layer conv5_3_pool2
I0316 22:50:06.658596 26470 net.cpp:106] Creating Layer conv5_3_pool2
I0316 22:50:06.658599 26470 net.cpp:454] conv5_3_pool2 <- conv5_3_conv5_3/relu_0_split_1
I0316 22:50:06.658607 26470 net.cpp:411] conv5_3_pool2 -> conv5_3_pool2
I0316 22:50:06.658624 26470 net.cpp:150] Setting up conv5_3_pool2
I0316 22:50:06.658629 26470 net.cpp:157] Top shape: 1 2048 2 2 (8192)
I0316 22:50:06.658632 26470 net.cpp:165] Memory required for data: 2296974336
I0316 22:50:06.658634 26470 layer_factory.hpp:77] Creating layer conv5_3_pool2_conv
I0316 22:50:06.658641 26470 net.cpp:106] Creating Layer conv5_3_pool2_conv
I0316 22:50:06.658645 26470 net.cpp:454] conv5_3_pool2_conv <- conv5_3_pool2
I0316 22:50:06.658653 26470 net.cpp:411] conv5_3_pool2_conv -> conv5_3_pool2_conv
I0316 22:50:06.681864 26470 net.cpp:150] Setting up conv5_3_pool2_conv
I0316 22:50:06.681884 26470 net.cpp:157] Top shape: 1 512 2 2 (2048)
I0316 22:50:06.681886 26470 net.cpp:165] Memory required for data: 2296982528
I0316 22:50:06.681895 26470 layer_factory.hpp:77] Creating layer conv5_3_pool2_conv/bn
I0316 22:50:06.681906 26470 net.cpp:106] Creating Layer conv5_3_pool2_conv/bn
I0316 22:50:06.681911 26470 net.cpp:454] conv5_3_pool2_conv/bn <- conv5_3_pool2_conv
I0316 22:50:06.681921 26470 net.cpp:397] conv5_3_pool2_conv/bn -> conv5_3_pool2_conv (in-place)
I0316 22:50:06.682080 26470 net.cpp:150] Setting up conv5_3_pool2_conv/bn
I0316 22:50:06.682086 26470 net.cpp:157] Top shape: 1 512 2 2 (2048)
I0316 22:50:06.682088 26470 net.cpp:165] Memory required for data: 2296990720
I0316 22:50:06.682096 26470 layer_factory.hpp:77] Creating layer conv5_3_pool2_conv/relu
I0316 22:50:06.682103 26470 net.cpp:106] Creating Layer conv5_3_pool2_conv/relu
I0316 22:50:06.682106 26470 net.cpp:454] conv5_3_pool2_conv/relu <- conv5_3_pool2_conv
I0316 22:50:06.682111 26470 net.cpp:397] conv5_3_pool2_conv/relu -> conv5_3_pool2_conv (in-place)
I0316 22:50:06.682116 26470 net.cpp:150] Setting up conv5_3_pool2_conv/relu
I0316 22:50:06.682119 26470 net.cpp:157] Top shape: 1 512 2 2 (2048)
I0316 22:50:06.682122 26470 net.cpp:165] Memory required for data: 2296998912
I0316 22:50:06.682126 26470 layer_factory.hpp:77] Creating layer conv5_3_pool2_interp
I0316 22:50:06.682129 26470 net.cpp:106] Creating Layer conv5_3_pool2_interp
I0316 22:50:06.682133 26470 net.cpp:454] conv5_3_pool2_interp <- conv5_3_pool2_conv
I0316 22:50:06.682137 26470 net.cpp:411] conv5_3_pool2_interp -> conv5_3_pool2_interp
I0316 22:50:06.682155 26470 net.cpp:150] Setting up conv5_3_pool2_interp
I0316 22:50:06.682160 26470 net.cpp:157] Top shape: 1 512 60 60 (1843200)
I0316 22:50:06.682163 26470 net.cpp:165] Memory required for data: 2304371712
I0316 22:50:06.682165 26470 layer_factory.hpp:77] Creating layer conv5_3_pool3
I0316 22:50:06.682171 26470 net.cpp:106] Creating Layer conv5_3_pool3
I0316 22:50:06.682175 26470 net.cpp:454] conv5_3_pool3 <- conv5_3_conv5_3/relu_0_split_2
I0316 22:50:06.682181 26470 net.cpp:411] conv5_3_pool3 -> conv5_3_pool3
I0316 22:50:06.682199 26470 net.cpp:150] Setting up conv5_3_pool3
I0316 22:50:06.682202 26470 net.cpp:157] Top shape: 1 2048 3 3 (18432)
I0316 22:50:06.682205 26470 net.cpp:165] Memory required for data: 2304445440
I0316 22:50:06.682207 26470 layer_factory.hpp:77] Creating layer conv5_3_pool3_conv
I0316 22:50:06.682217 26470 net.cpp:106] Creating Layer conv5_3_pool3_conv
I0316 22:50:06.682220 26470 net.cpp:454] conv5_3_pool3_conv <- conv5_3_pool3
I0316 22:50:06.682226 26470 net.cpp:411] conv5_3_pool3_conv -> conv5_3_pool3_conv
I0316 22:50:06.709761 26470 net.cpp:150] Setting up conv5_3_pool3_conv
I0316 22:50:06.709779 26470 net.cpp:157] Top shape: 1 512 3 3 (4608)
I0316 22:50:06.709781 26470 net.cpp:165] Memory required for data: 2304463872
I0316 22:50:06.709787 26470 layer_factory.hpp:77] Creating layer conv5_3_pool3_conv/bn
I0316 22:50:06.709800 26470 net.cpp:106] Creating Layer conv5_3_pool3_conv/bn
I0316 22:50:06.709805 26470 net.cpp:454] conv5_3_pool3_conv/bn <- conv5_3_pool3_conv
I0316 22:50:06.709810 26470 net.cpp:397] conv5_3_pool3_conv/bn -> conv5_3_pool3_conv (in-place)
I0316 22:50:06.709981 26470 net.cpp:150] Setting up conv5_3_pool3_conv/bn
I0316 22:50:06.709986 26470 net.cpp:157] Top shape: 1 512 3 3 (4608)
I0316 22:50:06.709990 26470 net.cpp:165] Memory required for data: 2304482304
I0316 22:50:06.709996 26470 layer_factory.hpp:77] Creating layer conv5_3_pool3_conv/relu
I0316 22:50:06.710002 26470 net.cpp:106] Creating Layer conv5_3_pool3_conv/relu
I0316 22:50:06.710005 26470 net.cpp:454] conv5_3_pool3_conv/relu <- conv5_3_pool3_conv
I0316 22:50:06.710008 26470 net.cpp:397] conv5_3_pool3_conv/relu -> conv5_3_pool3_conv (in-place)
I0316 22:50:06.710014 26470 net.cpp:150] Setting up conv5_3_pool3_conv/relu
I0316 22:50:06.710018 26470 net.cpp:157] Top shape: 1 512 3 3 (4608)
I0316 22:50:06.710022 26470 net.cpp:165] Memory required for data: 2304500736
I0316 22:50:06.710026 26470 layer_factory.hpp:77] Creating layer conv5_3_pool3_interp
I0316 22:50:06.710031 26470 net.cpp:106] Creating Layer conv5_3_pool3_interp
I0316 22:50:06.710041 26470 net.cpp:454] conv5_3_pool3_interp <- conv5_3_pool3_conv
I0316 22:50:06.710047 26470 net.cpp:411] conv5_3_pool3_interp -> conv5_3_pool3_interp
I0316 22:50:06.710067 26470 net.cpp:150] Setting up conv5_3_pool3_interp
I0316 22:50:06.710072 26470 net.cpp:157] Top shape: 1 512 60 60 (1843200)
I0316 22:50:06.710077 26470 net.cpp:165] Memory required for data: 2311873536
I0316 22:50:06.710078 26470 layer_factory.hpp:77] Creating layer conv5_3_pool6
I0316 22:50:06.710084 26470 net.cpp:106] Creating Layer conv5_3_pool6
I0316 22:50:06.710088 26470 net.cpp:454] conv5_3_pool6 <- conv5_3_conv5_3/relu_0_split_3
I0316 22:50:06.710093 26470 net.cpp:411] conv5_3_pool6 -> conv5_3_pool6
I0316 22:50:06.710111 26470 net.cpp:150] Setting up conv5_3_pool6
I0316 22:50:06.710116 26470 net.cpp:157] Top shape: 1 2048 6 6 (73728)
I0316 22:50:06.710119 26470 net.cpp:165] Memory required for data: 2312168448
I0316 22:50:06.710121 26470 layer_factory.hpp:77] Creating layer conv5_3_pool6_conv
I0316 22:50:06.710129 26470 net.cpp:106] Creating Layer conv5_3_pool6_conv
I0316 22:50:06.710132 26470 net.cpp:454] conv5_3_pool6_conv <- conv5_3_pool6
I0316 22:50:06.710139 26470 net.cpp:411] conv5_3_pool6_conv -> conv5_3_pool6_conv
I0316 22:50:06.733379 26470 net.cpp:150] Setting up conv5_3_pool6_conv
I0316 22:50:06.733423 26470 net.cpp:157] Top shape: 1 512 6 6 (18432)
I0316 22:50:06.733428 26470 net.cpp:165] Memory required for data: 2312242176
I0316 22:50:06.733440 26470 layer_factory.hpp:77] Creating layer conv5_3_pool6_conv/bn
I0316 22:50:06.733463 26470 net.cpp:106] Creating Layer conv5_3_pool6_conv/bn
I0316 22:50:06.733470 26470 net.cpp:454] conv5_3_pool6_conv/bn <- conv5_3_pool6_conv
I0316 22:50:06.733484 26470 net.cpp:397] conv5_3_pool6_conv/bn -> conv5_3_pool6_conv (in-place)
I0316 22:50:06.733716 26470 net.cpp:150] Setting up conv5_3_pool6_conv/bn
I0316 22:50:06.733722 26470 net.cpp:157] Top shape: 1 512 6 6 (18432)
I0316 22:50:06.733726 26470 net.cpp:165] Memory required for data: 2312315904
I0316 22:50:06.733732 26470 layer_factory.hpp:77] Creating layer conv5_3_pool6_conv/relu
I0316 22:50:06.733739 26470 net.cpp:106] Creating Layer conv5_3_pool6_conv/relu
I0316 22:50:06.733741 26470 net.cpp:454] conv5_3_pool6_conv/relu <- conv5_3_pool6_conv
I0316 22:50:06.733747 26470 net.cpp:397] conv5_3_pool6_conv/relu -> conv5_3_pool6_conv (in-place)
I0316 22:50:06.733753 26470 net.cpp:150] Setting up conv5_3_pool6_conv/relu
I0316 22:50:06.733757 26470 net.cpp:157] Top shape: 1 512 6 6 (18432)
I0316 22:50:06.733772 26470 net.cpp:165] Memory required for data: 2312389632
I0316 22:50:06.733777 26470 layer_factory.hpp:77] Creating layer conv5_3_pool6_interp
I0316 22:50:06.733780 26470 net.cpp:106] Creating Layer conv5_3_pool6_interp
I0316 22:50:06.733783 26470 net.cpp:454] conv5_3_pool6_interp <- conv5_3_pool6_conv
I0316 22:50:06.733785 26470 net.cpp:411] conv5_3_pool6_interp -> conv5_3_pool6_interp
I0316 22:50:06.733806 26470 net.cpp:150] Setting up conv5_3_pool6_interp
I0316 22:50:06.733809 26470 net.cpp:157] Top shape: 1 512 60 60 (1843200)
I0316 22:50:06.733811 26470 net.cpp:165] Memory required for data: 2319762432
I0316 22:50:06.733813 26470 layer_factory.hpp:77] Creating layer conv5_3_concat
I0316 22:50:06.733817 26470 net.cpp:106] Creating Layer conv5_3_concat
I0316 22:50:06.733820 26470 net.cpp:454] conv5_3_concat <- conv5_3_conv5_3/relu_0_split_4
I0316 22:50:06.733824 26470 net.cpp:454] conv5_3_concat <- conv5_3_pool6_interp
I0316 22:50:06.733826 26470 net.cpp:454] conv5_3_concat <- conv5_3_pool3_interp
I0316 22:50:06.733829 26470 net.cpp:454] conv5_3_concat <- conv5_3_pool2_interp
I0316 22:50:06.733831 26470 net.cpp:454] conv5_3_concat <- conv5_3_pool1_interp
I0316 22:50:06.733834 26470 net.cpp:411] conv5_3_concat -> conv5_3_concat
I0316 22:50:06.733850 26470 net.cpp:150] Setting up conv5_3_concat
I0316 22:50:06.733853 26470 net.cpp:157] Top shape: 1 4096 60 60 (14745600)
I0316 22:50:06.733855 26470 net.cpp:165] Memory required for data: 2378744832
I0316 22:50:06.733856 26470 layer_factory.hpp:77] Creating layer conv5_4
I0316 22:50:06.733865 26470 net.cpp:106] Creating Layer conv5_4
I0316 22:50:06.733865 26470 net.cpp:454] conv5_4 <- conv5_3_concat
I0316 22:50:06.733870 26470 net.cpp:411] conv5_4 -> conv5_4
I0316 22:50:07.195283 26470 net.cpp:150] Setting up conv5_4
I0316 22:50:07.195302 26470 net.cpp:157] Top shape: 1 512 60 60 (1843200)
I0316 22:50:07.195303 26470 net.cpp:165] Memory required for data: 2386117632
I0316 22:50:07.195310 26470 layer_factory.hpp:77] Creating layer conv5_4/bn
I0316 22:50:07.195328 26470 net.cpp:106] Creating Layer conv5_4/bn
I0316 22:50:07.195333 26470 net.cpp:454] conv5_4/bn <- conv5_4
I0316 22:50:07.195340 26470 net.cpp:397] conv5_4/bn -> conv5_4 (in-place)
I0316 22:50:07.195539 26470 net.cpp:150] Setting up conv5_4/bn
I0316 22:50:07.195547 26470 net.cpp:157] Top shape: 1 512 60 60 (1843200)
I0316 22:50:07.195551 26470 net.cpp:165] Memory required for data: 2393490432
I0316 22:50:07.195557 26470 layer_factory.hpp:77] Creating layer conv5_4/relu
I0316 22:50:07.195561 26470 net.cpp:106] Creating Layer conv5_4/relu
I0316 22:50:07.195562 26470 net.cpp:454] conv5_4/relu <- conv5_4
I0316 22:50:07.195565 26470 net.cpp:397] conv5_4/relu -> conv5_4 (in-place)
I0316 22:50:07.195569 26470 net.cpp:150] Setting up conv5_4/relu
I0316 22:50:07.195571 26470 net.cpp:157] Top shape: 1 512 60 60 (1843200)
I0316 22:50:07.195574 26470 net.cpp:165] Memory required for data: 2400863232
I0316 22:50:07.195576 26470 layer_factory.hpp:77] Creating layer conv5_4/dropout
I0316 22:50:07.195588 26470 net.cpp:106] Creating Layer conv5_4/dropout
I0316 22:50:07.195591 26470 net.cpp:454] conv5_4/dropout <- conv5_4
I0316 22:50:07.195593 26470 net.cpp:397] conv5_4/dropout -> conv5_4 (in-place)
I0316 22:50:07.195610 26470 net.cpp:150] Setting up conv5_4/dropout
I0316 22:50:07.195611 26470 net.cpp:157] Top shape: 1 512 60 60 (1843200)
I0316 22:50:07.195613 26470 net.cpp:165] Memory required for data: 2408236032
I0316 22:50:07.195614 26470 layer_factory.hpp:77] Creating layer conv6
I0316 22:50:07.195621 26470 net.cpp:106] Creating Layer conv6
I0316 22:50:07.195622 26470 net.cpp:454] conv6 <- conv5_4
I0316 22:50:07.195626 26470 net.cpp:411] conv6 -> conv6
I0316 22:50:07.197516 26470 net.cpp:150] Setting up conv6
I0316 22:50:07.197523 26470 net.cpp:157] Top shape: 1 150 60 60 (540000)
I0316 22:50:07.197525 26470 net.cpp:165] Memory required for data: 2410396032
I0316 22:50:07.197528 26470 layer_factory.hpp:77] Creating layer conv6_interp
I0316 22:50:07.197531 26470 net.cpp:106] Creating Layer conv6_interp
I0316 22:50:07.197533 26470 net.cpp:454] conv6_interp <- conv6
I0316 22:50:07.197535 26470 net.cpp:411] conv6_interp -> conv6_interp
I0316 22:50:07.197551 26470 net.cpp:150] Setting up conv6_interp
I0316 22:50:07.197556 26470 net.cpp:157] Top shape: 1 150 473 473 (33559350)
I0316 22:50:07.197557 26470 net.cpp:165] Memory required for data: 2544633432
I0316 22:50:07.197559 26470 net.cpp:228] conv6_interp does not need backward computation.
I0316 22:50:07.197561 26470 net.cpp:228] conv6 does not need backward computation.
I0316 22:50:07.197562 26470 net.cpp:228] conv5_4/dropout does not need backward computation.
I0316 22:50:07.197563 26470 net.cpp:228] conv5_4/relu does not need backward computation.
…
